models/deeplog_key_model.pt (torch, 286380 bytes, 11 tensors)

embedding.weight f4 [30, 64]
0	0x00000000	0.0
1	0x00000000	0.0
2	0x00000000	0.0
3	0x00000000	0.0
4	0x00000000	0.0
5	0x00000000	0.0
6	0x00000000	0.0
7	0x00000000	0.0
8	0x00000000	0.0
9	0x00000000	0.0
10	0x00000000	0.0
11	0x00000000	0.0
12	0x00000000	0.0
13	0x00000000	0.0
14	0x00000000	0.0
15	0x00000000	0.0
16	0x00000000	0.0
17	0x00000000	0.0
18	0x00000000	0.0
19	0x00000000	0.0
20	0x00000000	0.0
21	0x00000000	0.0
22	0x00000000	0.0
23	0x00000000	0.0
24	0x00000000	0.0
25	0x00000000	0.0
26	0x00000000	0.0
27	0x00000000	0.0
28	0x00000000	0.0
29	0x00000000	0.0
30	0x00000000	0.0
31	0x00000000	0.0
32	0x00000000	0.0
33	0x00000000	0.0
34	0x00000000	0.0
35	0x00000000	0.0
36	0x00000000	0.0
37	0x00000000	0.0
38	0x00000000	0.0
39	0x00000000	0.0
40	0x00000000	0.0
41	0x00000000	0.0
42	0x00000000	0.0
43	0x00000000	0.0
44	0x00000000	0.0
45	0x00000000	0.0
46	0x00000000	0.0
47	0x00000000	0.0
48	0x00000000	0.0
49	0x00000000	0.0
50	0x00000000	0.0
51	0x00000000	0.0
52	0x00000000	0.0
53	0x00000000	0.0
54	0x00000000	0.0
55	0x00000000	0.0
56	0x00000000	0.0
57	0x00000000	0.0
58	0x00000000	0.0
59	0x00000000	0.0
60	0x00000000	0.0
61	0x00000000	0.0
62	0x00000000	0.0
63	0x00000000	0.0
64	0xbf46ec5a	-0.77704394
65	0x3f175e89	0.59128624
66	0xbe871314	-0.26381743
67	0x3f287f9f	0.65819734
68	0xbf00a005	-0.5024417
69	0x3f4c1418	0.7971816
70	0xbe9256e5	-0.2858192
71	0xbfac6e1b	-1.3471102
72	0x400d3454	2.2063189
73	0xbe14845b	-0.14503615
74	0x3d9abcd0	0.075555444
75	0x3f2d8891	0.6778651
76	0xbfacc1db	-1.349666
77	0x3f9f85db	1.2462724
78	0x3f33122c	0.69949603
79	0x3e1554a2	0.14583066
80	0x40203061	2.5029528
81	0xbf9025cf	-1.1261538
82	0x3fb042ab	1.3770345
83	0x3f3a5219	0.7278152
84	0xbfc3773c	-1.5270762
85	0xbf9f8ed9	-1.2465469
86	0x3f138ecd	0.5763977
87	0x3d95b04f	0.07309019
88	0x3e70f163	0.23529582
89	0xbe11f3da	-0.14253178
90	0x3f8a290a	1.0793774
91	0xbf2ce870	-0.6754217
92	0xbf3a82f6	-0.7285608
93	0xbef14571	-0.47123292
94	0xbfa0afee	-1.255369
95	0xbf1f51dd	-0.6223429
96	0xbfefa8d1	-1.8723394
97	0xbf9ab26b	-1.2085699
98	0xbf071651	-0.5276843
99	0x3f952568	1.165204
100	0xbea440ef	-0.3208079
101	0xbe8610ff	-0.26184842
102	0xbeb627c5	-0.35577217
103	0x3eb4cb5a	0.35311395
104	0xbf26334a	-0.6492201
105	0xbeb9d196	-0.36292714
106	0x3f362ad6	0.7115911
107	0x3fdd7db5	1.7303988
108	0x3f28cb1a	0.6593491
109	0x404f22a9	3.2364905
110	0xbd581a30	-0.05275935
111	0xbfdb23b3	-1.712027
112	0x3e9e72ad	0.30946866
113	0x3a3ae848	0.00071299495
114	0x3f40fa7d	0.75382215
115	0xbfdace58	-1.7094221
116	0xbe4cd5ba	-0.20003405
117	0x3ead06a1	0.3379412
118	0xbfc7de53	-1.5614723
119	0x3fb5f56c	1.4215522
120	0x3ff8612c	1.9404655
121	0x3f011314	0.50419736
122	0x3d9b5d50	0.07586157
123	0xbf44e150	-0.769063
124	0xbf866f25	-1.0502669
125	0x3d4b991c	0.049706563
126	0xbf786ae7	-0.9703812
127	0xbfa7a111	-1.3096029
128	0xbfc362cb	-1.5264524
129	0x3f52adbf	0.82296365
130	0x3f4cb6dc	0.7996652
131	0xbe571a7c	-0.21006197
132	0x3f11e2f3	0.5698692
133	0x3f37e567	0.71834415
134	0xbcc42b59	-0.023946451
135	0xbf5fc675	-0.87412196
136	0xbebd817a	-0.37012845
137	0xbd854e70	-0.065091014
138	0x3e357b5c	0.17722839
139	0x3e889232	0.26674038
140	0x3e87a2cb	0.2649139
141	0xbeb62370	-0.35573912
142	0x3ecfa595	0.40556017
143	0x3ea23bc1	0.31686214
144	0x3fa0fad9	1.2576553
145	0x3f1fc779	0.62413746
146	0xbfbd14cb	-1.477197
147	0x3dd12685	0.10212425
148	0xbdf5a53a	-0.11994405
149	0xbf028153	-0.50978583
150	0xbf32d16e	-0.69850814
151	0x3f683f9a	0.9072205
152	0xbf085ef9	-0.53269917
153	0xbdaaf727	-0.08347922
154	0x3f5575e7	0.8338303
155	0x3da1ec84	0.0790644
156	0xbf83a8d4	-1.0285897
157	0xbe9aac77	-0.30209705
158	0x3f63752c	0.88850665
159	0xbed34163	-0.41260824
160	0xbf02fa31	-0.5116301
161	0x3dbecf53	0.09316888
162	0xbd9f1989	-0.07768542
163	0x3fc0a0e6	1.5049102
164	0xc017a369	-2.3693488
165	0x3d4231d6	0.04741081
166	0xbf19040b	-0.59771794
167	0xbe469715	-0.1939357
168	0xbcdc425b	-0.02688711
169	0x3fd0356d	1.6266304
170	0xbdc70bde	-0.0971906
171	0x3e1d2a5e	0.15348193
172	0xbf3043a0	-0.6885319
173	0xbe2ccd68	-0.16875231
174	0xbfbbb416	-1.4664333
175	0xbf24d3fd	-0.6438597
176	0xbe7cbff2	-0.24682596
177	0xbf4cd15e	-0.8000697
178	0x3d86645b	0.0656211
179	0x3ef6b0e7	0.4818184
180	0x3e02de1e	0.12780043
181	0x3fa73b6d	1.306501
182	0xbf6dbe13	-0.92868155
183	0x3f22f60c	0.6365669
184	0x3f1d1efb	0.613754
185	0x3f0917d5	0.5355199
186	0x3f00c96a	0.50307333
187	0xbed13489	-0.40860394
188	0xbf3438d1	-0.70399195
189	0x3fe78aa5	1.8089186
190	0x3e977c72	0.29587132
191	0x3eac427d	0.33644477
192	0x3d6593f2	0.056049295
193	0x3b8e3f60	0.004341051
194	0x3f7b80f0	0.9824362
195	0x3ed299e3	0.4113303
196	0x3d255e6b	0.040373247
197	0xbe2f045a	-0.17091504
198	0xbec1f554	-0.37882483
199	0x3e2de473	0.16981678
200	0x3e5f1329	0.21784653
201	0xbf606d09	-0.87666374
202	0x3ee33bd5	0.44381586
203	0x3e3d4312	0.18482617
204	0xbefaee5f	-0.49009988
205	0xbde8f3e4	-0.113746434
206	0xbdda8fb6	-0.10671942
207	0x3e737341	0.23774435
208	0x3e1eb71e	0.15499541
209	0xbe35ec80	-0.17765999
210	0xbd5414c7	-0.051777627
211	0xbe459d14	-0.19298202
212	0x3eb22b6a	0.34798747
213	0x3ee7ae94	0.4525038
214	0x3effd39a	0.49966127
215	0x3e8056f8	0.25066352
216	0x3c06c409	0.008225449
217	0x3f0cd57c	0.5501325
218	0xbe11e432	-0.14247206
219	0xbe2c7909	-0.16843046
220	0xbe33192d	-0.17490073
221	0x3c7e06a7	0.015504516
222	0xbde67cfa	-0.11254306
223	0xbd759e8a	-0.059965648
224	0xbe635209	-0.22199263
225	0xbdc0c0af	-0.094117515
226	0x3e517209	0.20453657
227	0xbe231cf6	-0.15929016
228	0xbdc5fdf8	-0.09667581
229	0x3e28f8b4	0.16501123
230	0x3df114ea	0.11771567
231	0xbce920bb	-0.02845799
232	0x3ccbc724	0.024875231
233	0xbf113f4c	-0.5673721
234	0x3eb1aa19	0.34700087
235	0xbf7497ff	-0.9554443
236	0xbf0e1dfd	-0.5551451
237	0x3db03332	0.08603515
238	0xbd820ebf	-0.06350469
239	0xbd131663	-0.03591002
240	0x3f320153	0.6953327
241	0xbda62c13	-0.08113875
242	0xbe4bd7c8	-0.19906533
243	0xbee2a092	-0.4426313
244	0x3db52f25	0.08846883
245	0xbeec27d2	-0.4612413
246	0xbbb4ecec	-0.0055214074
247	0xbd000538	-0.031254977
248	0xbe364ef8	-0.17803562
249	0x3dd47e6c	0.103756756
250	0xbe92c13d	-0.28663054
251	0xbe3dfa5d	-0.18552537
252	0x3f488573	0.7832863
253	0xbf9c9797	-1.2233762
254	0xbdc58da5	-0.09646157
255	0x3d946c3b	0.07247206

lstm.weight_ih_l0 f4 [256, 64]
0	0x3ed41eae	0.41429657
1	0xbef726d2	-0.48271805
2	0x3ec5f70b	0.3866504
3	0x3f9b9834	1.2155824
4	0xbc0eab47	-0.008707828
5	0x3e152394	0.14564353
6	0xbf0829d7	-0.5318884
7	0xbeefea42	-0.46858412
8	0xbf8be045	-1.0927817
9	0x3df88a94	0.12135807
10	0xbec08c36	-0.37606972
11	0xbec3073a	-0.3809145
12	0xbeec6614	-0.4617163
13	0x3dfbabcb	0.12288626
14	0x3f58e585	0.8472522
15	0x3e316b93	0.17326193
16	0xbe7b0ab9	-0.24515809
17	0x3e8de0b9	0.27710512
18	0x3d204966	0.0391325
19	0xbebd77cf	-0.3700547
20	0x3c8c1006	0.017097484
21	0xbdfd9d64	-0.123835355
22	0xbf09a9ff	-0.5377502
23	0xbf8aab1e	-1.0833471
24	0xbf44231f	-0.7661609
25	0x3ea38908	0.31940484
26	0x3dce45e9	0.10071928
27	0xbf8151d8	-1.0103102
28	0xbd6173a0	-0.05504191
29	0xbec049ed	-0.375564
30	0x3da56941	0.08076716
31	0xbe48cb92	-0.19608906
32	0x3e76a724	0.24087197
33	0x3e0a554a	0.13509098
34	0xbea8f4e7	-0.32999346
35	0xbe3a751b	-0.18208735
36	0x3eb9f270	0.36317778
37	0x3f8d9e85	1.1064001
38	0xbe0f6a04	-0.14005286
39	0xbd3d2a77	-0.046183076
40	0xbe456ea2	-0.19280484
41	0xbecca9f4	-0.39973414
42	0xbf01f151	-0.50758845
43	0x3d6c2ee1	0.057661895
44	0x3f009e83	0.5024187
45	0x3dcd155d	0.1001384
46	0x3ee50727	0.4473202
47	0x3ea87279	0.32899836
48	0x3f24359c	0.641443
49	0xbe5da083	-0.21643262
50	0xbf1f646b	-0.622626
51	0x3e7de523	0.2479444
52	0x3ef0f86c	0.4706453
53	0x3e4915b8	0.19637191
54	0x3c82352f	0.0158945
55	0xbeaa5d8f	-0.33274505
56	0xbecaa9e8	-0.39582753
57	0x3dea7e62	0.11449887
58	0xbdf63e6a	-0.12023623
59	0x3f093330	0.5359373
60	0x3f65ebfd	0.89813215
61	0xbd3e96e9	-0.046530638
62	0xbda80ba3	-0.082053445
63	0xbed6f842	-0.4198628
64	0xbee1860e	-0.44047588
65	0xbf220300	-0.6328583
66	0x3e4dc30d	0.20093937
67	0x3f2632e3	0.64921397
68	0x3e6ccb15	0.23124345
69	0x3e95a843	0.29229936
70	0x3f19ff8f	0.60155576
71	0xbf1ae95b	-0.6051232
72	0x3e7d57be	0.24740502
73	0x3f341efb	0.7035977
74	0x3eaaf67d	0.3339118
75	0xbd8435ef	-0.064555995
76	0xbd086ba3	-0.033305775
77	0x3de01c14	0.109428555
78	0x3ed52406	0.41629046
79	0x3f28abdf	0.65887254
80	0xbd4ee391	-0.050509993
81	0xbe4c58d1	-0.19955756
82	0x3f5ca65d	0.8619135
83	0xbf674ca1	-0.903513
84	0xbd911e59	-0.070858665
85	0x3f07c675	0.53037196
86	0xbf17c500	-0.59284973
87	0x3ee36df9	0.4441984
88	0xbf47475d	-0.77843267
89	0x3eea734f	0.45791098
90	0x3fa5595c	1.2917895
91	0xbf0ee1ea	-0.5581347
92	0x3e14cb2c	0.14530629
93	0xbf1e06df	-0.61729234
94	0x3da08b74	0.078390986
95	0xbf8ca3cf	-1.098749
96	0xbf421ce1	-0.75825316
97	0xbe4fcb31	-0.20292355
98	0x3ec8b636	0.39201516
99	0x3ef11452	0.47085816
100	0xbee82ec2	-0.45348173
101	0x3e6d3d41	0.23167898
102	0xbf284905	-0.6573642
103	0x3d9a52bd	0.07535312
104	0xbf5de7cf	-0.86681837
105	0x3e82a70a	0.25518066
106	0x3e43c2aa	0.19117227
107	0xbeaaa677	-0.33330128
108	0x3f88d616	1.0690334
109	0x3f75de4b	0.9604232
110	0x3f2c20f4	0.6723778
111	0x3e579785	0.21053894
112	0x3f411846	0.75427663
113	0xbed1b7c5	-0.40960518
114	0xbe2a051d	-0.16603513
115	0x3ee7368d	0.45158806
116	0x3e8a3397	0.26992485
117	0xbee2adb7	-0.4427316
118	0x3eb5193d	0.35370818
119	0x3f1567ed	0.58361703
120	0xbe06c4f8	-0.13161075
121	0x3e03f6e1	0.12887146
122	0xbf1faa42	-0.6236917
123	0x3d9a70c8	0.075410426
124	0x3dede416	0.116157696
125	0x3ddf8acf	0.109151475
126	0xbe18e5c6	-0.14931402
127	0x3ebd1180	0.36927414
128	0x3e0f44d0	0.13991094
129	0xbe829456	-0.25503796
130	0xbee87337	-0.45400402
131	0x3d4119ae	0.04714363
132	0x3e29053b	0.16505902
133	0xbf093dc6	-0.53609884
134	0xbda9449d	-0.0826504
135	0x3f51719b	0.81813973
136	0x3e7f367e	0.24923131
137	0xbe3143cf	-0.17311023
138	0xbe8fbb2c	-0.28072488
139	0xbb92d43d	-0.004480867
140	0x3e36ca54	0.1785062
141	0x3e90a401	0.28250125
142	0xbe0a0a79	-0.13480558
143	0xbec8c11a	-0.39209825
144	0xbe76a50f	-0.24086402
145	0x3d8c5249	0.06851632
146	0xbd8cc734	-0.068739325
147	0x3e9f75ce	0.31144565
148	0xbe128094	-0.14306861
149	0x3d6a5971	0.057214204
150	0x3f0d9a04	0.55313134
151	0xbd736c4c	-0.05942945
152	0x3ecb97ce	0.39764255
153	0xbebb2a90	-0.3655591
154	0xbe338a95	-0.17533334
155	0x3f2f26f4	0.6841881
156	0xbe1a5ada	-0.1507372
157	0x3e9ac15d	0.3022565
158	0xbf279e5c	-0.6547601
159	0xbd94b2f4	-0.07260695
160	0x3f1951d8	0.5989051
161	0xbea708a2	-0.32623774
162	0x3e7db2e5	0.24775274
163	0xbf2fb9bf	-0.686428
164	0x3e64975b	0.22323363
165	0xbdf08c33	-0.11745491
166	0x3eb68272	0.35646397
167	0xbe5e9e34	-0.21740037
168	0x3e15a623	0.14614157
169	0xbf059378	-0.52178144
170	0x3eedecd2	0.46469742
171	0x3d0e4dd6	0.0347422
172	0x3e44ad30	0.19206691
173	0xbe9fcdea	-0.31211787
174	0x3f2a169a	0.6644074
175	0x3ef3db1f	0.47628114
176	0x3ebb6a8c	0.36604726
177	0x3f1b0502	0.60554516
178	0xbe9c0625	-0.30473438
179	0xbf11aa05	-0.56900054
180	0xbeddbfcb	-0.4331039
181	0x3caed56b	0.021342
182	0x3f31c15d	0.69435674
183	0x3dc76ae3	0.09737184
184	0xbd963476	-0.07334225
185	0xbefa6394	-0.48904097
186	0xbf4f10b8	-0.80884886
187	0x3de69885	0.112595595
188	0xbdf3c9cc	-0.11903724
189	0xbea8804f	-0.32910392
190	0xbd9bad94	-0.07601467
191	0x3e64e275	0.22352012
192	0x3f6c9d11	0.92427164
193	0xbf353ab3	-0.7079269
194	0xbeeab2bb	-0.45839486
195	0x3e729447	0.23689376
196	0x3f097631	0.5369597
197	0x3f0be057	0.5463919
198	0xbd31790a	-0.043328322
199	0xbed98443	-0.4248372
200	0x3ed14a01	0.40876773
201	0xbea53bf8	-0.32272315
202	0xbd711f86	-0.058867954
203	0xbf7cd9ec	-0.9877002
204	0xbdb1bff7	-0.086791925
205	0x3d0b8be0	0.034068942
206	0xbcee4544	-0.029085763
207	0xbf321a49	-0.6957136
208	0xbf841759	-1.0319625
209	0xbe93756b	-0.2880052
210	0xbe0368fc	-0.12833017
211	0x3e6df81c	0.23239177
212	0xbd02fdbc	-0.03198026
213	0x3f17d0ff	0.5930328
214	0xbd488fb2	-0.048965164
215	0xbd9f7c5c	-0.077873915
216	0x3e53b0d5	0.20672925
217	0xbe720173	-0.23633365
218	0xbe378441	-0.17921545
219	0xbe133775	-0.14376624
220	0xbe1f28d1	-0.15542914
221	0xbd4d7f66	-0.050170325
222	0xbf4610cd	-0.77369386
223	0xbcecb94a	-0.028896946
224	0xbf44dcf7	-0.76899666
225	0x3f881e63	1.0634273
226	0xbf16780f	-0.58776945
227	0xbdedbe11	-0.11608518
228	0xbe883261	-0.26600936
229	0x3f32e634	0.6988251
230	0x3dd4ce20	0.10390878
231	0x3e621126	0.22076854
232	0xbf568b6c	-0.8380649
233	0xbec80f2f	-0.39074084
234	0x3d3558bf	0.044274088
235	0x3f73e0e3	0.95265025
236	0x3f785a05	0.9701236
237	0xbed58f11	-0.41710714
238	0xbe69a6a5	-0.22817476
239	0xbe52383d	-0.20529266
240	0x3f0930b9	0.5358997
241	0xbedffde9	-0.43748406
242	0xbefa5269	-0.48891
243	0x3f047a6d	0.51749307
244	0xbef69116	-0.48157567
245	0x3e7ec463	0.24879603
246	0x3eba8fd1	0.36437848
247	0xbf174e6c	-0.5910404
248	0x3f2fcbe0	0.68670464
249	0xbd633a49	-0.055475507
250	0xbd993c0c	-0.07482156
251	0xbe29e85a	-0.16592541
252	0x3e365373	0.17805271
253	0xbe512046	-0.20422468
254	0xbf8792de	-1.0591695
255	0xbe31113b	-0.17291729

lstm.weight_hh_l0 f4 [256, 64]
0	0x3ea8457c	0.32865512
1	0xbeaddb0f	-0.3395619
2	0xbd6fab01	-0.05851269
3	0x3eb097cb	0.3449081
4	0x3df44b7d	0.11928461
5	0xbe7b18d6	-0.24521193
6	0x3f555a34	0.83340764
7	0xbea17db6	-0.31541222
8	0xbf33cde3	-0.70236033
9	0x3f0668d2	0.52503693
10	0x3f86ba40	1.0525589
11	0x3f1a09df	0.6017131
12	0xbf5f9a42	-0.87344754
13	0x3f1f6463	0.6226255
14	0xbf99bbfe	-1.2010496
15	0x3e10a735	0.14126284
16	0x3f07828b	0.5293357
17	0x3f8d5908	1.1042795
18	0xbf7ecf08	-0.99534655
19	0x3f5745eb	0.8409106
20	0xbef06b2b	-0.46956763
21	0x3d456122	0.048188336
22	0xbeecd072	-0.4625278
23	0x3e7e0bfc	0.24809259
24	0x3ebd3d78	0.3696096
25	0xbf50ac9f	-0.815134
26	0x3fa23137	1.2671269
27	0x3e2e52db	0.17023794
28	0xbf048623	-0.51767176
29	0xbf60495c	-0.8761194
30	0xbf12f964	-0.5741179
31	0xbeb99a6b	-0.36250624
32	0xbece1e53	-0.4025751
33	0x3f817953	1.011515
34	0xbf123e2e	-0.5712613
35	0x3f400744	0.75011086
36	0x3e835431	0.2565017
37	0xbf1ba26a	-0.607947
38	0xbf2deb09	-0.6793676
39	0xbf0a6710	-0.5406351
40	0x3f987737	1.1911381
41	0x3f92782a	1.1442921
42	0x3ede59a1	0.43427756
43	0x3edfbe16	0.43699712
44	0x3fd03929	1.6267444
45	0xbe6f1667	-0.2334839
46	0xbe5b0722	-0.2138944
47	0xbf6b8ab8	-0.92008543
48	0xbec1a50f	-0.37821242
49	0xbf69ca87	-0.9132466
50	0x3f01beb0	0.5068159
51	0x3dd72f96	0.10507123
52	0xbf16aa71	-0.5885382
53	0xbf36a605	-0.71347076
54	0x3e8cc4c0	0.27493858
55	0x3eb93fbb	0.36181435
56	0xbf14e680	-0.58164215
57	0xbfbc9da1	-1.4735605
58	0x3dc77a59	0.09740133
59	0x3dedd5ca	0.11613043
60	0x3e6725da	0.22573033
61	0x3e37547e	0.17903325
62	0x3eb0372e	0.344171
63	0x3e60ce68	0.21953738
64	0xbf437863	-0.7635557
65	0x3dedff9e	0.11621021
66	0x3ed0d602	0.40788275
67	0xbdae0198	-0.08496398
68	0xbf1a59cb	-0.60293263
69	0x3d8a3476	0.067482874
70	0xbf277e4f	-0.65427107
71	0xbf4c1712	-0.797227
72	0xbedd451b	-0.43216786
73	0x3f3dc186	0.7412342
74	0x3cefc3b9	0.029268133
75	0x3ebef6f3	0.37297782
76	0x3e05d67a	0.13070098
77	0x3e1b9cb2	0.15196493
78	0xbe26cb88	-0.16288579
79	0xbea63cc6	-0.3246824
80	0xbfc0fceb	-1.5077184
81	0xbe377629	-0.17916168
82	0x3de0643a	0.10956617
83	0xbcf352cc	-0.029702567
84	0xbf07d089	-0.53052574
85	0xbc92e420	-0.017931044
86	0xbca47082	-0.02007318
87	0xbf39cf7e	-0.7258223
88	0xbe3e8e37	-0.18608938
89	0x3f294c5e	0.6613215
90	0xbf00d19f	-0.50319856
91	0xbf522927	-0.82094043
92	0xbe495453	-0.19661073
93	0x3e450189	0.19238867
94	0x3e2ccce2	0.16875032
95	0xbf55dc83	-0.835396
96	0xbe3d9792	-0.1851485
97	0x3f1d2086	0.6137775
98	0x3eb4e8ec	0.35333955
99	0x3f19562e	0.59897125
100	0xbe626e9b	-0.22112505
101	0xbf21fee9	-0.6327959
102	0x3e32e4dc	0.17470115
103	0x3daf644c	0.08564052
104	0x3e62abff	0.22135924
105	0x3dfb0a56	0.12257831
106	0xbea9a486	-0.33133334
107	0x3e7202ab	0.2363383
108	0x3ea98826	0.33111686
109	0xbe5ba457	-0.2144941
110	0xbe840edf	-0.25792596
111	0x3d03b2d6	0.032152973
112	0xbdea0c91	-0.11428178
113	0xbbba409a	-0.0056839706
114	0x3f085904	0.5326083
115	0x3e30fade	0.17283198
116	0xbe40ae4e	-0.18816492
117	0xbf0ef292	-0.5583888
118	0xbf2e4bfd	-0.680847
119	0x3e85b034	0.26110995
120	0xbf048aba	-0.5177418
121	0x3ea27542	0.31730086
122	0x3ec126a4	0.37724793
123	0x3cc61f57	0.024184866
124	0x3efb3d20	0.49070072
125	0xbf86a621	-1.0519449
126	0x3f0720a3	0.52784175
127	0xbf10f9ca	-0.5663115
128	0xbedd8a81	-0.43269733
129	0xbf6ee0ca	-0.9331175
130	0x3f6939b6	0.91103685
131	0x3f172440	0.5903969
132	0xbf2d5c53	-0.67719
133	0x3ec9b6af	0.3939719
134	0x3df34946	0.1187921
135	0xbd177f9c	-0.036986932
136	0xbe32e353	-0.1746953
137	0x3fcfafdc	1.6225543
138	0xbe1d2a3b	-0.15348141
139	0xbf184217	-0.59475845
140	0xbfe0f80d	-1.7575699
141	0xbe6f966c	-0.23397225
142	0x3e84c4fd	0.2593154
143	0xbf4bf8a4	-0.7967627
144	0xbfa2307a	-1.2671044
145	0xbf9a7d7e	-1.2069547
146	0xbed93b87	-0.42428228
147	0xb943b7da	-0.00018665139
148	0xbf957004	-1.167481
149	0x3f175a6d	0.59122354
150	0xbf3420d8	-0.70362616
151	0x3f06d142	0.5266305
152	0xbf0169c7	-0.5055203
153	0x3f355063	0.70825785
154	0xbd4d7ef8	-0.050169915
155	0xbf0d280e	-0.55139244
156	0xbe952fd4	-0.29138052
157	0xbf27bd23	-0.65522975
158	0x3fb8f501	1.4449769
159	0xbf38756c	-0.7205417
160	0xbef0b6d1	-0.47014478
161	0xbf1e5efa	-0.6186367
162	0x3f22bdb0	0.6357069
163	0x3ee994e3	0.45621404
164	0xbe0c8b63	-0.13725047
165	0x3cbbb6ef	0.022914378
166	0xbf93b03f	-1.1538161
167	0xbf8b9600	-1.0905151
168	0x3e6d0196	0.23145136
169	0x3fb7bb05	1.4353949
170	0xbfdd37b1	-1.7282621
171	0x3f0c0290	0.5469141
172	0x3f843293	1.0327934
173	0x3f11d850	0.5697069
174	0xbf98757e	-1.1910856
175	0xbe933d32	-0.28757626
176	0xbfb6b998	-1.4275389
177	0xbf9c68bd	-1.2219464
178	0xbedfdcfb	-0.43723282
179	0x3f1256b7	0.57163566
180	0xbe0d1e09	-0.13780989
181	0x3dec718d	0.115450956
182	0x3edd3b25	0.43209186
183	0x3f09a28a	0.5376364
184	0xbf7b2783	-0.98107165
185	0x3e6c1a81	0.23056985
186	0x3f3dd82e	0.7415799
187	0xbf1e0add	-0.61735326
188	0x3e973872	0.29535252
189	0x3de9db56	0.11418788
190	0xbe2ee872	-0.17080858
191	0xbf425443	-0.75909823
192	0x3f5afd11	0.855424
193	0x3f02dda6	0.5111946
194	0x3fc09c79	1.5047752
195	0xbcfc27a9	-0.03078063
196	0x3f1be289	0.6089254
197	0x3f20e164	0.6284392
198	0x3e86c910	0.26325274
199	0xbed35bc4	-0.4128095
200	0xbe855c74	-0.260471
201	0x3ee561b7	0.44801113
202	0x3da9b2be	0.082860455
203	0x3d4f4114	0.050599173
204	0x3ecf2ec8	0.4046538
205	0x3ed96ae3	0.4246436
206	0xbe115467	-0.14192353
207	0x3e84e00d	0.25952187
208	0x3f564d08	0.8371129
209	0x3fc3ec1a	1.5306427
210	0xbdb15c03	-0.08660128
211	0x3f61a0a8	0.88135767
212	0xbf67ef41	-0.9059945
213	0x3f614874	0.8800118
214	0xbf0f7098	-0.5603118
215	0xbf85b180	-1.0444794
216	0xbecd0e6d	-0.40050068
217	0xbf96fbc9	-1.1795589
218	0xbd30f926	-0.043206356
219	0xbf755ed6	-0.95847833
220	0x3ed9199a	0.42402345
221	0x3cef67b8	0.029224262
222	0xbf785b3a	-0.970142
223	0x3ea35c7d	0.319065
224	0xbe745114	-0.23859054
225	0x3d90b713	0.07066169
226	0x40024f8c	2.0361052
227	0x3f942e84	1.1576695
228	0xbf53ab4f	-0.8268327
229	0x3efefbeb	0.49801573
230	0x3f1ebc84	0.620064
231	0xbf78bed0	-0.97166157
232	0xbe89e2d1	-0.2693086
233	0x3e295239	0.16535272
234	0xbf041803	-0.5159914
235	0x3f8a5c12	1.0809348
236	0xbd903251	-0.07040847
237	0x3f089347	0.5334973
238	0x3d99b60f	0.07505428
239	0xbd09faff	-0.033686634
240	0x3f57d500	0.8430939
241	0x3f3d849f	0.7403049
242	0x3f118547	0.5684399
243	0x3ecc0c02	0.3985291
244	0xbe311991	-0.17294909
245	0xbfb10118	-1.3828459
246	0xbf636628	-0.88827753
247	0xbd708c8b	-0.058727782
248	0x3f5ac5c5	0.8545802
249	0xbf4815b0	-0.7815809
250	0x3ecf1a9c	0.4044999
251	0x3f780f78	0.96898603
252	0x3e9bdd87	0.3044245
253	0xbe558269	-0.20850529
254	0xbd76b43b	-0.060230475
255	0x3e889e4f	0.2668328

lstm.bias_ih_l0 f4 [256]
0	0x3de2e59e	0.11078952
1	0x3da75b18	0.08171672
2	0xbdc84906	-0.09779553
3	0x3e5cc6c3	0.21560197
4	0x3e531d2a	0.20616594
5	0x3f45ed49	0.77315193
6	0x3d9bbcd0	0.076043725
7	0x3f3fc4f9	0.7490993
8	0x3ed36703	0.4128953
9	0xbec1e756	-0.37871808
10	0x3d129bff	0.0357933
11	0xbd266fc8	-0.040633947
12	0xbe6b191d	-0.22958799
13	0x3f0a07a8	0.5391793
14	0x3f1f6e17	0.6227736
15	0x3e6648ba	0.2248868
16	0xbd53a296	-0.051668726
17	0x3e725990	0.23666978
18	0x3e95244b	0.29129252
19	0x3dc73207	0.09726339
20	0x3d3f57bd	0.046714533
21	0x3eb4e1d2	0.35328537
22	0xbe012509	-0.12611784
23	0x3e836546	0.25663203
24	0x3e99d99c	0.30048835
25	0x3e611d75	0.21983893
26	0x3e8bdbd6	0.2731616
27	0xbb87de39	-0.004146364
28	0x3e7dcb3e	0.24784562
29	0x3e349e1e	0.17638442
30	0x3f54fb79	0.83196217
31	0x3d92c347	0.071661524
32	0x3f3fde2e	0.74948394
33	0x3ea6f683	0.3260995
34	0x3f08e587	0.5347523
35	0x3e2bb4bc	0.16768163
36	0xbdc849db	-0.09779712
37	0x3f061124	0.52369905
38	0x3fa43434	1.2828431
39	0x3e89505a	0.26819116
40	0xbee8e849	-0.4548972
41	0x3d86de63	0.06585386
42	0x3d652ae7	0.055949118
43	0x3e04fedd	0.12987848
44	0x3d140004	0.036132827
45	0x3e8f6f35	0.28014532
46	0xbebeb63c	-0.3724841
47	0x3f07669d	0.5289095
48	0x3eb236f5	0.34807554
49	0xbe012505	-0.12611778
50	0xbe8032e8	-0.25038838
51	0x3e93161e	0.28727812
52	0x3cf894d9	0.030344414
53	0x3ea6a036	0.32544106
54	0x3ea4d806	0.32196063
55	0x3f0a9020	0.5412617
56	0x3ef7249a	0.48270112
57	0x3e6d67fa	0.23184195
58	0x3e34c228	0.1765219
59	0xbea8677b	-0.3289145
60	0x3e000c8b	0.12504785
61	0x3f04b7b7	0.51842827
62	0x3ecc3437	0.39883587
63	0x3e64c79d	0.22341771
64	0x3f1676c8	0.58774996
65	0x3f2f7214	0.68533444
66	0x3ee628e2	0.44953066
67	0x3ea0b8cb	0.31390986
68	0x3dfbecc6	0.1230102
69	0x3f45d17d	0.7727278
70	0xbeb55e5d	-0.35423556
71	0x3c025e49	0.00795705
72	0x3de972c2	0.113988414
73	0xbdd2757f	-0.10276317
74	0x3eb996f0	0.3624797
75	0x3f02538a	0.5090872
76	0x3d8ed8f0	0.06974971
77	0x3efd4c1e	0.49472135
78	0x3e287c29	0.16453613
79	0x3f0bce2b	0.5461146
80	0x3ec9f1ad	0.39442196
81	0x3e3cd58d	0.18440838
82	0x3e91741c	0.28408897
83	0x3eb34dc6	0.35020274
84	0x3c25bb57	0.010115466
85	0x3ec62e7c	0.3870734
86	0xbecff0f9	-0.40613535
87	0xbe6a0ac4	-0.2285567
88	0x3edf2ddc	0.43589675
89	0x3c5371df	0.012905567
90	0x3ecc2c80	0.398777
91	0x3e65ace7	0.22429238
92	0x3e8903b1	0.2676063
93	0xbe5963a9	-0.21229424
94	0x3f384e70	0.71994686
95	0x3e3c426c	0.18384713
96	0x3ec58ddf	0.38584802
97	0x3ea80d3d	0.328226
98	0x3e98b5da	0.29826242
99	0x3edcfdfb	0.43162522
100	0xbd91b401	-0.07114411
101	0xbe54f67b	-0.2079715
102	0x3cf7a4bf	0.030229924
103	0x3f12cf64	0.573477
104	0x3e4ecc4b	0.20195119
105	0x3df952ce	0.12173997
106	0xbe23fb65	-0.16013868
107	0x3ebecca3	0.372655
108	0x3f172063	0.59033793
109	0x3e8e2ea9	0.27769974
110	0x3f509aba	0.81486094
111	0x3ee3da4c	0.44502485
112	0x3db1d29d	0.086827494
113	0x3ef2f891	0.47455266
114	0x3f11dfd4	0.5698216
115	0x3e92dc01	0.28683475
116	0x3e8d99c0	0.27656364
117	0x3f0bf311	0.54667765
118	0xbe86c043	-0.2631856
119	0x3ea6a920	0.32550907
120	0xbdb0b51d	-0.086282946
121	0xbea1352c	-0.3148588
122	0x3e940214	0.28907835
123	0x3ea27913	0.31732997
124	0x3e137d7a	0.14403334
125	0x3f35bb35	0.7098878
126	0xbd151ce5	-0.03640451
127	0xbe81387a	-0.252384
128	0x3e520984	0.20511442
129	0x3dbfc7c1	0.09364272
130	0x3db233b9	0.087012716
131	0x3f0b2d87	0.54366344
132	0x3da7c8f1	0.081926234
133	0x3e24dc3c	0.16099638
134	0xbe0cd036	-0.13751301
135	0xbef8bba0	-0.48580647
136	0xbed62efe	-0.41832727
137	0xbd64f66c	-0.05589907
138	0x3ec4d4f1	0.3844371
139	0x3f1c48ba	0.6104847
140	0xbee24e4c	-0.4420036
141	0xba662440	-0.00087792054
142	0xbef2dfd4	-0.47436392
143	0xbd3b13a0	-0.045673013
144	0xbf476cc4	-0.7790034
145	0xbb047a77	-0.0020214596
146	0x3eb7fabf	0.35933492
147	0x3de6c080	0.11267185
148	0xbeaf5c0c	-0.34249914
149	0x3e2b67fa	0.16738883
150	0xbe3bd8c9	-0.18344416
151	0x3e7c3629	0.24630035
152	0xbd48ab03	-0.048991214
153	0xbdedce1f	-0.1161158
154	0x3e80e5a2	0.25175196
155	0xbe422e7f	-0.1896305
156	0xbe761b5f	-0.24033879
157	0xbe53e196	-0.20691523
158	0x3ec9e2b4	0.39430773
159	0xbdb439fc	-0.08800122
160	0xbeab7826	-0.33490103
161	0xbdf60283	-0.12012198
162	0xbe8ffd7d	-0.28123084
163	0xbe77188b	-0.24130456
164	0xbe833130	-0.25623465
165	0xbf118a74	-0.5685189
166	0xbe295672	-0.16536883
167	0xbd0eab35	-0.034831244
168	0xbe951003	-0.29113778
169	0x3e44e817	0.1922916
170	0xbd7de5ab	-0.061986607
171	0xbf5db558	-0.86604834
172	0x3eff8f84	0.4991418
173	0x3b62fa3e	0.003463402
174	0xbed53429	-0.41641358
175	0xbf7b2e8e	-0.9811791
176	0xbf03b144	-0.5144236
177	0xbde0f74e	-0.109846696
178	0x3dc526d9	0.0962655
179	0x3e2b388c	0.1672079
180	0xbec7aeef	-0.3900065
181	0xbeb7e2cd	-0.35915223
182	0xbe81edca	-0.2537673
183	0x3e4f6c17	0.20256077
184	0x3e5f6a98	0.21818006
185	0xbc38f898	-0.011289738
186	0x3ebf9d5b	0.3742474
187	0xbd1ac42e	-0.037784748
188	0x3ece6d77	0.4031789
189	0xbf02b04b	-0.5105025
190	0x3dbac330	0.0911926
191	0xbcac8d6e	-0.021063533
192	0x3e78d515	0.24300034
193	0x3e473b9e	0.19456336
194	0x3f2d87ae	0.67785156
195	0x3e87aeb3	0.26500472
196	0x3ebe34b1	0.37149575
197	0x3e8dfb8c	0.27730978
198	0x3f2eb3f3	0.6824333
199	0x3f01d9d3	0.50723
200	0x3f02523e	0.5090674
201	0x3f066d1d	0.52510244
202	0x3efb5ce0	0.49094296
203	0xbeb5a554	-0.35477698
204	0x3e9a9f48	0.30199647
205	0x3e9e3f8f	0.30907866
206	0x3f0f6c9c	0.560251
207	0xbe539aac	-0.20664471
208	0x3e288a8a	0.16459098
209	0x3e94bfa4	0.2905246
210	0x3ec5341f	0.38516328
211	0x3f11bf53	0.5693256
212	0xbd4549c2	-0.048166044
213	0x3ed68dc7	0.41905043
214	0x3f1318f0	0.57459927
215	0x3ebf8cc4	0.37412083
216	0xbe28f05d	-0.16497941
217	0x3e05b2d7	0.13056503
218	0x3f034218	0.51272726
219	0x3f1538cf	0.5828981
220	0x3d6928f1	0.05692381
221	0x3e2cf9db	0.16892187
222	0xbd3c8dc1	-0.046033625
223	0x3ec691dd	0.3878316
224	0x3e6f981e	0.23397872
225	0x3f0d6943	0.5523874
226	0x3dc6c101	0.09704781
227	0x3d0d4752	0.034491844
228	0xbc6115d5	-0.013738115
229	0xbe366287	-0.17811023
230	0x3f442dec	0.7663257
231	0x3db14c3a	0.08657117
232	0x3ef73c7c	0.48288333
233	0xbc699a53	-0.014257985
234	0x3f2c03e4	0.67193437
235	0x3e41fa69	0.1894318
236	0x3d8dc8c5	0.069230594
237	0x3e22d088	0.15899861
238	0xbe0ea854	-0.139314
239	0xbeb7d344	-0.3590337
240	0x3e25e0e1	0.16199066
241	0x3f0996b4	0.5374558
242	0x3e05a45f	0.13050984
243	0x3f07357a	0.52815974
244	0x3e1d85ce	0.15383074
245	0x3d8fd005	0.070220985
246	0x3ecde3c3	0.4021283
247	0x3f2e5cf3	0.6811058
248	0x3f2cb7e1	0.67468077
249	0x3d8d6efb	0.069059335
250	0xbe54b879	-0.20773496
251	0x3ef56e9b	0.47935948
252	0x3e731485	0.23738296
253	0xbc38fad1	-0.011290268
254	0x3f1d0092	0.61328995
255	0x3eb182bb	0.34670052

lstm.bias_hh_l0 f4 [256]
0	0x3d2729ec	0.040811464
1	0x3e83a99b	0.25715336
2	0xbe0f8208	-0.14014447
3	0x3ddd165e	0.10795282
4	0x3e81accc	0.25327146
5	0x3f40f431	0.75372607
6	0x3e4b7726	0.1986967
7	0x3f36ae55	0.7135976
8	0x3eaf5449	0.34243992
9	0xbe2acc4f	-0.166795
10	0x3cd547a9	0.026035147
11	0x3d950246	0.07275824
12	0xbea11ebc	-0.3146876
13	0x3ecec79e	0.4038667
14	0x3f0cc8d1	0.5499392
15	0x3e9ca167	0.3059189
16	0x3db693e3	0.08914926
17	0x3e4d7bb8	0.20066726
18	0x3e5dd653	0.2166379
19	0x3c23d3ad	0.009999198
20	0x3d8a26b8	0.06745666
21	0x3edf52b0	0.43617773
22	0xbb74c84a	-0.0037350827
23	0x3e58b3df	0.21162365
24	0x3f04814e	0.51759803
25	0x3c2a3770	0.010389194
26	0x3eb13f70	0.3461871
27	0x3dd4c6c4	0.10389474
28	0x3e72d310	0.23713326
29	0x3eb01d83	0.34397516
30	0x3f56598b	0.8373038
31	0x3e004228	0.12525237
32	0x3f2afcfe	0.66792285
33	0x3e4215d2	0.18953636
34	0x3ea5a148	0.3234961
35	0x3e8418e2	0.25800234
36	0x3d538ee1	0.05164993
37	0x3f32a8d2	0.6978885
38	0x3f9d8c50	1.2308445
39	0x3edfd60c	0.43717992
40	0xbed138cd	-0.40863648
41	0x3ca3578a	0.019939203
42	0xbc436c0a	-0.011927614
43	0x3db7be7f	0.08971881
44	0x3df013e2	0.11722542
45	0x3e68bf06	0.2272912
46	0xbe3970ff	-0.18109511
47	0x3eb392a4	0.35072815
48	0x3ec462f1	0.38356736
49	0xbd98f1aa	-0.07467969
50	0xbe82f8cb	-0.2558044
51	0x3e48f2e0	0.196239
52	0xbc5a9829	-0.013341942
53	0x3e8beb56	0.27327985
54	0x3e98d340	0.2984867
55	0x3ed10297	0.40822288
56	0x3efef7f3	0.49798545
57	0x3d879f0e	0.06622134
58	0xbd315819	-0.043296907
59	0xbe6b4d6c	-0.22978753
60	0x3def9901	0.11699105
61	0x3f1cda7b	0.61270875
62	0x3f10f052	0.566167
63	0x3e10978f	0.14120315
64	0x3f0eeee3	0.5583326
65	0x3f39f2f7	0.7263636
66	0x3e8bc577	0.2729909
67	0x3e629cd8	0.22130144
68	0x3e585aad	0.2112834
69	0x3f47df89	0.7807546
70	0xbea1fb4d	-0.3163704
71	0x3e76d90a	0.24106231
72	0x3ccfb9bf	0.025357125
73	0xbd013ee1	-0.031554107
74	0x3ecf93b2	0.4054237
75	0x3f2f795a	0.6854454
76	0x3dae3cf7	0.08507722
77	0x3ed03f5a	0.40673333
78	0x3e5207ed	0.20510836
79	0x3f1a7f49	0.6035047
80	0x3e6c3240	0.23066044
81	0x3e8941ac	0.26807916
82	0x3dd1733a	0.10227056
83	0x3ea6ae06	0.32554644
84	0xbcaaa98d	-0.020832801
85	0x3effaa3c	0.49934566
86	0xbee6e1a6	-0.4509403
87	0xbe9b48bf	-0.30328938
88	0x3eb10948	0.34577394
89	0x3c345d34	0.0110085495
90	0x3e81fae0	0.25386715
91	0x3ec2ac3f	0.38022038
92	0x3ed39353	0.41323337
93	0xbe2f31cb	-0.17108838
94	0x3f3f0786	0.74620855
95	0x3e8177f1	0.2528682
96	0x3eead2bd	0.45863906
97	0x3e314e3e	0.17315003
98	0x3e20317c	0.15643877
99	0x3ed744cb	0.42044672
100	0x3dcba897	0.09944265
101	0xbe6006b3	-0.21877556
102	0x3e08b644	0.13350779
103	0x3f344d04	0.70430017
104	0x3ddfa6a4	0.10920456
105	0x3e50d1f8	0.20392597
106	0x3bf90e5d	0.007600589
107	0x3e96f5c7	0.29484388
108	0x3ee58084	0.44824612
109	0x3e4e4d34	0.20146638
110	0x3f4d9cd6	0.8031744
111	0x3ef2576c	0.47332323
112	0x3dce33ad	0.1006845
113	0x3ef9ac44	0.4876424
114	0x3f078909	0.52943474
115	0x3e478838	0.19485557
116	0x3dde506c	0.10855183
117	0x3ed938a6	0.42426032
118	0xbeb8d6cf	-0.36101386
119	0x3ea8899c	0.32917488
120	0xbdf3bcd1	-0.11901248
121	0xbe4379ed	-0.1908948
122	0x3e1c572d	0.1526763
123	0x3e246d09	0.16057219
124	0x3e1781fd	0.1479568
125	0x3f3a4ef1	0.72776705
126	0xbe0cd862	-0.13754418
127	0xbdcd284f	-0.10017454
128	0x3e04ed08	0.12981045
129	0x3e3df855	0.18551762
130	0x3d80aa99	0.06282539
131	0x3f132b43	0.5748789
132	0x3d432ad7	0.047648277
133	0xbd316c83	-0.043316375
134	0xbe39dc34	-0.18150407
135	0xbf05eb7f	-0.52312464
136	0xbef233c0	-0.47305107
137	0xbd008f6b	-0.031386774
138	0x3edc81a5	0.4306766
139	0x3f23c780	0.6397629
140	0xbec6a89e	-0.3880052
141	0xbc748b33	-0.014925766
142	0xbeb97adc	-0.36226547
143	0xbe5a2a8d	-0.21305294
144	0xbf2ca158	-0.6743369
145	0xbc9aa155	-0.018875757
146	0x3e79f3d0	0.24409413
147	0x3dc1c4ef	0.0946139
148	0xbef0d318	-0.47036052
149	0x3c54f9be	0.012998996
150	0xbe6737dd	-0.22579904
151	0x3e4d7e0a	0.20067611
152	0x3c9942ac	0.01870855
153	0xbcc68a34	-0.024235822
154	0x3e215c52	0.15757874
155	0xbde4d799	-0.111739345
156	0xbed6dc42	-0.41964918
157	0xbecfcef8	-0.40587592
158	0x3ec019fa	0.3751982
159	0x3df8b58b	0.121440016
160	0xbea0aeea	-0.3138345
161	0xbdc93082	-0.09823705
162	0xbe134c9d	-0.14384694
163	0xbe5bb4af	-0.21455644
164	0xbeaa2e96	-0.33238667
165	0xbf197304	-0.59941125
166	0xbe8c3f86	-0.27392215
167	0xbd3b8730	-0.04578322
168	0xbe2577b2	-0.16158941
169	0x3d95cb63	0.073141836
170	0xbe054eaa	-0.13018289
171	0xbf60291a	-0.87562716
172	0x3f22cf28	0.63597345
173	0xbe09d407	-0.13459788
174	0xbe9d097d	-0.306713
175	0xbf7db9ac	-0.9911144
176	0xbea3bad7	-0.31978485
177	0xbe24aecc	-0.16082305
178	0x3cebcb0d	0.028783346
179	0xbcf97409	-0.030450838
180	0xbeb356e7	-0.3502724
181	0xbeb09b33	-0.34493408
182	0xbd3ecf48	-0.046584398
183	0x3e37cd67	0.17949449
184	0x3d4204b1	0.047367755
185	0xbe6fd4d1	-0.23421027
186	0x3ec64c05	0.38729873
187	0x3ca42f69	0.020042138
188	0x3ec194c7	0.3780882
189	0xbf1c9ad9	-0.6117378
190	0xbd2272d6	-0.039660297
191	0xbc5998d3	-0.013281065
192	0x3e870146	0.2636816
193	0x3e6f459e	0.233664
194	0x3f4f57fc	0.8099363
195	0x3e5f256d	0.2179162
196	0x3eaccb9b	0.3374909
197	0x3d60c489	0.05487493
198	0x3f006dba	0.5016743
199	0x3ef28921	0.47370246
200	0x3f0e5b10	0.556077
201	0x3ee5f8fc	0.44916523
202	0x3eeba0af	0.4602103
203	0xbeba21a4	-0.3635379
204	0x3e60aaf3	0.21940212
205	0x3e85119f	0.25990006
206	0x3eeed312	0.4664541
207	0xbd9bf664	-0.07615355
208	0x3e222e10	0.15837884
209	0x3ea79a8e	0.32735103
210	0x3e4d1f68	0.20031512
211	0x3ec0605e	0.37573522
212	0xbe0cd1a5	-0.13751848
213	0x3f030b42	0.51189053
214	0x3f3fa9cc	0.74868464
215	0x3ed98c4e	0.42489856
216	0xbe12ab37	-0.14323126
217	0x3e5469f4	0.20743543
218	0x3f2653f3	0.64971846
219	0x3f12fd7b	0.5741803
220	0x3de3f424	0.111305505
221	0x3e7260cb	0.23669736
222	0xbd3ccd89	-0.04609445
223	0x3f1146c9	0.56748635
224	0x3df744c7	0.12073665
225	0x3f2e0a1d	0.6798418
226	0x3e29deb2	0.16588858
227	0x3d76d3e5	0.060260672
228	0xbe25c46f	-0.16188215
229	0xbe4f970b	-0.20272462
230	0x3f3208e6	0.6954483
231	0xba4b14be	-0.0007746926
232	0x3f126348	0.5718274
233	0x3d9c1bff	0.07622527
234	0x3f099d20	0.5375538
235	0x3dea958d	0.11454306
236	0xbcdaaced	-0.026693786
237	0x3e1a31b7	0.15058027
238	0xbda89d3a	-0.082331136
239	0xbed49e56	-0.4152705
240	0x3e8c854a	0.2744544
241	0x3eb9ac18	0.3626411
242	0x3e1555af	0.14583467
243	0x3f047378	0.5173869
244	0xbc1296c3	-0.008947077
245	0x3cf28095	0.029602328
246	0x3f227ffa	0.63476527
247	0x3f43f8b5	0.7655137
248	0x3f1ad681	0.60483557
249	0x3d14f19b	0.036363225
250	0xbe71d049	-0.2361461
251	0x3f02e668	0.5113282
252	0x3e944115	0.28955904
253	0xbdfa73b8	-0.12229103
254	0x3f21f662	0.63266575
255	0x3e373493	0.17891149

lstm.weight_ih_l1 f4 [256, 64]
0	0x3e39e37d	0.18153186
1	0x3d3cf556	0.046132408
2	0x3f6e36b5	0.93052226
3	0xbf4ff0af	-0.8122663
4	0x3e45d2c9	0.1931869
5	0x3e96dfc4	0.29467595
6	0x3ecb7c37	0.39743206
7	0x3ef14e3b	0.47129998
8	0x3eca6926	0.39533347
9	0x3ee99bd6	0.45626706
10	0x3ddd1b4e	0.107962236
11	0xbf1fe3b9	-0.6245685
12	0x3e0eb6c2	0.13936904
13	0x3df6ee4c	0.1205717
14	0x3f3cb29c	0.73710036
15	0xbf47920c	-0.77957225
16	0x3df92c33	0.121666335
17	0x3e8d1a94	0.2755934
18	0x3f203618	0.6258254
19	0x3ec5967a	0.38591367
20	0x3d3b553e	0.04573559
21	0xbea5092a	-0.32233554
22	0xbea5ff67	-0.3242142
23	0x3ee36a77	0.44417164
24	0xbe8d6610	-0.2761693
25	0xbe102294	-0.1407569
26	0x3eb646d0	0.356009
27	0xbdbaa4e8	-0.091134846
28	0xbf26110a	-0.6486975
29	0xbf459258	-0.7717643
30	0x3f1a99de	0.6039103
31	0xbf26721e	-0.6501788
32	0xbee92fd8	-0.45544314
33	0x3f2aa25d	0.66653997
34	0x3edfcd15	0.43711153
35	0xbea605f0	-0.32426405
36	0x3e838fef	0.2569575
37	0xbf4a9182	-0.7912828
38	0xbdd5f099	-0.10446281
39	0xbe22e798	-0.15908659
40	0x3e76d459	0.24104442
41	0x3f528a28	0.8224206
42	0xbf352ee9	-0.70774704
43	0x3f719a45	0.9437602
44	0xbe248689	-0.16066946
45	0xbd289b8c	-0.041163966
46	0xbde706a7	-0.11280566
47	0xbf9d1b33	-1.2273926
48	0xbf5e796c	-0.86904025
49	0xbeecf358	-0.46279407
50	0xbe619978	-0.220312
51	0xbf272b6f	-0.6530065
52	0xbd9ad85c	-0.075607985
53	0xbf306fee	-0.6892079
54	0xbf53fec7	-0.82810634
55	0x3f48f66e	0.7850102
56	0x3e7d4815	0.24734528
57	0xbef5c6e1	-0.48003295
58	0x3ec41815	0.38299623
59	0xbd6f5980	-0.058434963
60	0x3eceb33b	0.40371117
61	0xbe97e232	-0.2966476
62	0xbda59a05	-0.080860175
63	0x3f4109a5	0.7540534
64	0xbf9a61f3	-1.2061142
65	0x3da929c8	0.08259922
66	0xbf487946	-0.7831005
67	0x3f7a7264	0.97830796
68	0x3e9ceef2	0.3065105
69	0xbe9e9f1f	-0.30980775
70	0xbe0607a9	-0.1308886
71	0xbedd601c	-0.43237388
72	0x3ea2f8d1	0.31830457
73	0x3e3063ad	0.17225523
74	0xbe7656c1	-0.24056531
75	0x3b3ba664	0.0028633112
76	0x3ecbd510	0.3981099
77	0x3f4c1536	0.79719865
78	0x3ec7c81f	0.39019868
79	0xbf94d0e4	-1.1626248
80	0xbe31545a	-0.17317334
81	0xbf18bce5	-0.5966323
82	0xbe2bc697	-0.16774975
83	0xbeaf6aec	-0.34261262
84	0xbe67e119	-0.22644462
85	0xbf05958c	-0.52181315
86	0x3c8b82e6	0.01703019
87	0xbec96282	-0.39332968
88	0x3fa5eb5d	1.2962452
89	0xbebe4d2f	-0.3716826
90	0xbe0b9114	-0.13629562
91	0xbbcf81d2	-0.0063326145
92	0x3edf64c5	0.4363157
93	0xbe7ea1f4	-0.24866468
94	0xbf84f61e	-1.0387609
95	0xbf38df99	-0.7221618
96	0x3ddd522f	0.10806691
97	0x3e320765	0.17385633
98	0xbe4a4521	-0.19752933
99	0x3ebee061	0.37280563
100	0x3e4b943c	0.19880766
101	0x3e850b1a	0.25985032
102	0xbd393987	-0.045220878
103	0x3e5b46a1	0.21413662
104	0xbd8e3f65	-0.06945685
105	0x3c0a1cec	0.008429747
106	0x3ea1e2db	0.3161839
107	0x3f0c63f0	0.5483999
108	0xbf5482ae	-0.830119
109	0x3e83553b	0.25650963
110	0xbf647ec9	-0.8925596
111	0xbf6de789	-0.9293142
112	0xbf00cf29	-0.503161
113	0x3f201106	0.62525976
114	0xbf281534	-0.65657353
115	0xbed68b9e	-0.41903394
116	0xbd643cb1	-0.055721942
117	0xbe4a0007	-0.19726573
118	0x3e722c42	0.23649696
119	0xbe7b0b3e	-0.24516007
120	0xbe1691b5	-0.1470402
121	0x3e2d9111	0.1694987
122	0x3dd0f07a	0.10202117
123	0xbddd8c65	-0.10817794
124	0x3e9b285c	0.3030423
125	0xbed28555	-0.4111735
126	0x3ed15cba	0.40891057
127	0x3ecb24dc	0.3967656
128	0xbf62083b	-0.8829381
129	0xbe7939fd	-0.24338527
130	0x3ea4970e	0.32146496
131	0x3fbda194	1.4814935
132	0x3eb5b197	0.35487053
133	0xbdd93450	-0.10605681
134	0x3ebde385	0.37087646
135	0x3d14d0bc	0.036331877
136	0xbe844aae	-0.25838226
137	0xbebae149	-0.36500004
138	0xbf051186	-0.51979864
139	0x3fc2d38e	1.5220811
140	0x3e73d103	0.238102
141	0xbe183d29	-0.14867081
142	0xbeed1fd8	-0.46313357
143	0x3f0dff26	0.5546745
144	0x3ef640b0	0.48096228
145	0xbfa2b684	-1.2711949
146	0x3f1e0cde	0.61738384
147	0x3d363e45	0.04449298
148	0xbf767f58	-0.9628806
149	0xbe1b6b2d	-0.15177603
150	0xbf4f1948	-0.8089795
151	0x3f1824b5	0.5943101
152	0x3fab01d7	1.3359936
153	0xbe8fad80	-0.28062057
154	0xbe112e94	-0.14177924
155	0xbe3f8c95	-0.18705972
156	0xbef32a8c	-0.47493398
157	0xbd662f26	-0.056197308
158	0xbe527d1b	-0.20555536
159	0x3f2b58a3	0.66932124
160	0xbdac7626	-0.084209725
161	0x3e6a7d9b	0.22899477
162	0xbf9f9601	-1.2467653
163	0x3e0c5196	0.13702998
164	0xbd44a598	-0.048009485
165	0xbef16b9b	-0.4715241
166	0xbe382fa9	-0.17986931
167	0xbfc6c0ef	-1.5527629
168	0x3e1c966e	0.1529176
169	0x3e068d95	0.13139947
170	0x3f169a3e	0.58829105
171	0xbe908969	-0.28229836
172	0x3ece970f	0.40349624
173	0x3dab8765	0.08375434
174	0xbf0a6e8a	-0.5407492
175	0xbf194f77	-0.5988688
176	0x3e70f844	0.23532206
177	0x3e28fe7e	0.16503331
178	0xbf786d8b	-0.9704215
179	0x3f14a18e	0.5805901
180	0x3eaba027	0.33520624
181	0xbc508dd4	-0.012729127
182	0x3d283cf1	0.041073743
183	0x3e479e1a	0.19493905
184	0xbf4fa0b5	-0.81104594
185	0x3dd28a9a	0.102803424
186	0x3f318226	0.69339216
187	0x3b6fac70	0.0036571287
188	0x3e2614b2	0.16218832
189	0xbf05e5fa	-0.5230404
190	0x3f13db95	0.5775693
191	0xbf65dc7a	-0.89789546
192	0xbf09e284	-0.5386126
193	0xbed13d67	-0.4086716
194	0x3e3c7a3f	0.18406008
195	0x3e84a8c3	0.25910005
196	0x3f3ea175	0.74465114
197	0xbe076062	-0.13220361
198	0x3edcba50	0.43110895
199	0xbf674e71	-0.9035407
200	0xbd97b3f7	-0.074073724
201	0x3e8b7e2e	0.27244705
202	0x3eab72ca	0.33486015
203	0xbe7c6b6a	-0.2465035
204	0x3dea46b5	0.114392675
205	0x3f2fc46e	0.686591
206	0xbf44850e	-0.76765525
207	0x3e131100	0.14361954
208	0xbed784ed	-0.42093602
209	0x3f5705fe	0.8399352
210	0x3e2e52dc	0.17023796
211	0x3eb8ebaf	0.36117312
212	0x3e4ef2d5	0.2020982
213	0x3e7b6046	0.24548444
214	0xbe91576d	-0.28387013
215	0x3e880e48	0.26573396
216	0xbe7ec158	-0.24878442
217	0x3ea78326	0.32717246
218	0x3d33007c	0.043701634
219	0x3dcb63a6	0.09931116
220	0x3dec3a91	0.11534608
221	0xbe4d6e0a	-0.20061508
222	0xbdd31a95	-0.103078045
223	0x3e607329	0.2191893
224	0x3f5ff015	0.8747571
225	0xbe83b3d3	-0.25723132
226	0xbe870eb6	-0.2637841
227	0xbf0335cc	-0.5125396
228	0xbe65426c	-0.22388619
229	0x3ea604bc	0.32425487
230	0x3f58b967	0.846579
231	0x3e78240c	0.24232501
232	0xbe8f6d44	-0.2801305
233	0xbe1e8c85	-0.15483291
234	0x3e2517d4	0.16122371
235	0xbf05c5b6	-0.5225481
236	0xbdebe952	-0.11519112
237	0x3e85848c	0.26077688
238	0x3e5a02d1	0.21290137
239	0xbd662024	-0.056182995
240	0xbc0bc279	-0.008530253
241	0xbed05b5e	-0.40694708
242	0x3eb3a219	0.35084608
243	0x3f2e506b	0.6809146
244	0xbe82c428	-0.2554028
245	0xbe6fd589	-0.23421301
246	0x3ebc2075	0.36743513
247	0xbe9f00ba	-0.31055242
248	0x3f1a86f2	0.6036216
249	0xbe44fcb0	-0.19237018
250	0x3d311aac	0.043238327
251	0x3dc25a40	0.0948987
252	0x3eb1663a	0.34648305
253	0x3ec2ed44	0.38071644
254	0x3e95c53c	0.2925204
255	0xbed3959e	-0.41325086

lstm.weight_hh_l1 f4 [256, 64]
0	0x3e6754e3	0.22590975
1	0xbdd63e60	-0.10461116
2	0xbf38af1d	-0.721422
3	0x3f4835bd	0.78207
4	0xbd0505b9	-0.03247616
5	0xbecd1b24	-0.4005977
6	0xbeef832d	-0.46779767
7	0xbf195fdf	-0.5991191
8	0x3f24d818	0.6439223
9	0x3fd95c90	1.6981373
10	0xbe260ca1	-0.16215755
11	0xbc16aa5b	-0.009195889
12	0xbf86beb1	-1.0526944
13	0xbe7de25e	-0.24793383
14	0xbe9167e0	-0.28399563
15	0x3eda5d08	0.42649102
16	0xbf8f55e8	-1.1198092
17	0x3f05dd85	0.52291137
18	0xbf59eebe	-0.85129917
19	0xbd48925b	-0.0489677
20	0x3e219b00	0.15781784
21	0x3e079b84	0.13242918
22	0x3f6aedfd	0.9176939
23	0x3f03a567	0.5142426
24	0xbedd1b95	-0.43185106
25	0x3d524c7e	0.05134248
26	0x3fcf6e52	1.6205542
27	0x3e146686	0.14492235
28	0x3e3a3c2c	0.18187016
29	0xbe9b7472	-0.30362278
30	0xbf477d7d	-0.77925855
31	0x3f6a76de	0.91587627
32	0xbe3b28f4	-0.18277341
33	0x3f1b65b0	0.6070204
34	0x3ec5ddca	0.38645774
35	0xbe1358dc	-0.14389366
36	0xbf236921	-0.6383229
37	0xbed17100	-0.40906525
38	0xbd5c4a91	-0.05378205
39	0x3ed59ca6	0.41721076
40	0xbf0819e3	-0.531645
41	0x3f0b543a	0.54425395
42	0xbf600df2	-0.8752128
43	0x3f99376e	1.1970041
44	0x3f07e0ed	0.53077585
45	0xbf5561cc	-0.8335235
46	0xbe519cae	-0.20469925
47	0xbefd24c3	-0.4944211
48	0x3fe7bc85	1.8104407
49	0xbe7b190b	-0.24521272
50	0xbec520de	-0.38501638
51	0xbe55c85d	-0.20877214
52	0xbf0a4408	-0.5401006
53	0xbef3911d	-0.4757165
54	0x3e24a709	0.16079344
55	0x3f1e0ec9	0.6174131
56	0x3f4726b9	0.7779346
57	0xbe219291	-0.15778567
58	0xbf04bdad	-0.5185192
59	0xbf0101f8	-0.5039363
60	0xbf1fb629	-0.6238733
61	0x3e100ebb	0.14068119
62	0xbf533cbe	-0.8251456
63	0xbdf20d83	-0.118189834
64	0xbec2b0f1	-0.3802562
65	0x3f4cbe0c	0.7997749
66	0x3f4004c1	0.75007254
67	0xbea540ce	-0.32276005
68	0xbee817b3	-0.4533058
69	0x3e9e3a88	0.3090403
70	0x3e3b822a	0.18311372
71	0xbf06c97e	-0.526512
72	0x3d8b281b	0.06794759
73	0xbed9acef	-0.4251475
74	0xbf0505ee	-0.51962173
75	0x3eddc7cb	0.43316492
76	0x3eb2ae12	0.3489843
77	0x3e142ffc	0.1447143
78	0xbf12603d	-0.571781
79	0xbf56f0cc	-0.83961177
80	0x3f387e00	0.7206726
81	0xbec72770	-0.38897276
82	0x3f4c2881	0.79749304
83	0x3ef7ac5c	0.48373687
84	0xbf171360	-0.5901394
85	0xbede812d	-0.43457928
86	0x3f104d15	0.5636762
87	0xbbebfc83	-0.0072017326
88	0x3d9bd1fa	0.07608409
89	0xbf124222	-0.5713216
90	0xbef024fc	-0.46903217
91	0xbe5f9b6e	-0.21836635
92	0x3f658586	0.89656866
93	0x3f0a1f72	0.5395423
94	0xbdba2432	-0.09088935
95	0xbe8da5d4	-0.2766558
96	0x3f13c681	0.5772477
97	0x3e3e2ee6	0.18572578
98	0x3f19bfe6	0.6005844
99	0xbe577058	-0.2103895
100	0x3f2f391f	0.68446535
101	0xbe261f56	-0.16222891
102	0x3ee20e81	0.4415169
103	0x3ef824f8	0.48465705
104	0x3f2238c7	0.63367885
105	0xbe216e71	-0.15764786
106	0x3e705d1c	0.23473018
107	0x3ef2a955	0.47394815
108	0xbf22a028	-0.6352563
109	0xbddbdad5	-0.10735098
110	0x3f852d0d	1.0404373
111	0x3e38f3d8	0.18061769
112	0xbf4dc93c	-0.80385184
113	0x3e8c05ad	0.2734808
114	0x3ea59c64	0.3234588
115	0xbf2202b4	-0.63285375
116	0x3d449946	0.047997735
117	0x3f5fdd0d	0.8744667
118	0x3d6967b6	0.056983672
119	0x3e3fb2b0	0.18720508
120	0x3d78cadc	0.060740337
121	0x3eb50023	0.35351667
122	0x3edc1901	0.42987826
123	0xbf2e7b1e	-0.6815661
124	0x3d80a9b2	0.06282367
125	0xbf879c04	-1.0594487
126	0x3d6917e3	0.056907546
127	0xbec73023	-0.38903913
128	0xbc429a8b	-0.011877666
129	0x3eaefff8	0.34179664
130	0x3ce3b765	0.02779741
131	0x3f8b9c14	1.0907006
132	0x3f008744	0.502064
133	0x3cc4e3a5	0.02403433
134	0x3d553883	0.052055847
135	0x3f2fbe20	0.6864948
136	0xbe834d1f	-0.25644776
137	0xbea21282	-0.31654745
138	0xbf288aed	-0.65836984
139	0x3e6eb425	0.23310907
140	0x3e7155dd	0.2356791
141	0x3e8be249	0.2732108
142	0x3e738729	0.23782028
143	0x3eda6d37	0.4266145
144	0xbd2722a1	-0.04080451
145	0x3f01412b	0.50490063
146	0x3e4b0837	0.19827352
147	0xbe877f14	-0.2646414
148	0xbe4150ea	-0.18878523
149	0x3e61961c	0.22029918
150	0x3da1d299	0.079014964
151	0xbc736fac	-0.014858168
152	0x3e493530	0.19649196
153	0x3e03dbd7	0.12876831
154	0x3e75e674	0.24013692
155	0x3d629ab5	0.05532332
156	0x3f540707	0.8282322
157	0xbe8ebf88	-0.27880502
158	0xbe44558f	-0.19173263
159	0xbbd8be9b	-0.006614519
160	0xbe5ed9fb	-0.2176284
161	0x3f8da366	1.106549
162	0x3ee00729	0.43755463
163	0xbe0660e2	-0.13122895
164	0x3fa3b996	1.2791011
165	0x3ef8929d	0.48549357
166	0xbe6ad592	-0.22933033
167	0xbf927198	-1.1440916
168	0x3e0c8bbc	0.1372518
169	0xbe012c9a	-0.1261467
170	0xbe997e13	-0.29979
171	0x3e70a727	0.23501264
172	0x3e82942b	0.25503668
173	0xbe2376f0	-0.1596334
174	0x3e885e1a	0.26634294
175	0xbe964c23	-0.29354963
176	0xbde000bf	-0.10937642
177	0xbd98a114	-0.07452598
178	0x3ef71c59	0.48263815
179	0xbf75aedb	-0.95969933
180	0xbda791e7	-0.081821255
181	0x3f1293b0	0.57256603
182	0x3edf3821	0.4359751
183	0x3e307883	0.17233472
184	0xbf2bef1f	-0.67161745
185	0xbfb2e02d	-1.3974663
186	0xbebfe567	-0.37479708
187	0xbf055930	-0.52089214
188	0xbef33652	-0.4750238
189	0xbe861346	-0.2618658
190	0x3f0e5542	0.55598843
191	0x3f572f4b	0.8405654
192	0xbe83a123	-0.25708875
193	0xbfa18665	-1.2619139
194	0x3ecf029e	0.40431684
195	0xbdb0b51e	-0.08628295
196	0xbeebe9e2	-0.46076876
197	0xbf1635eb	-0.5867602
198	0xbf020e3d	-0.50802976
199	0x3ec81dfc	0.39085376
200	0x3e548a34	0.20755845
201	0xbf771c3d	-0.96527463
202	0x3f3abf65	0.72948295
203	0x3df191f3	0.11795416
204	0x3f036b99	0.51336056
205	0x3df34c8d	0.11879835
206	0x3eee1350	0.4649911
207	0x3f71e03e	0.9448279
208	0x3f3c7168	0.73610544
209	0x3f07fd54	0.53120923
210	0xbf53799d	-0.8260744
211	0xbf5f5871	-0.87244326
212	0xbf2037d8	-0.6258521
213	0x3f1d68d5	0.61488086
214	0x3dd77f9f	0.10522389
215	0x3ebf0005	0.37304702
216	0xbefa1164	-0.48841393
217	0x3ec9d261	0.3941832
218	0xbf05ad30	-0.5221739
219	0xbed59f91	-0.41723302
220	0x3f1733bd	0.5906332
221	0x3e0051b0	0.12531161
222	0xbe7bc338	-0.24586189
223	0x3f05d815	0.5228284
224	0xbe49acec	-0.1969487
225	0x3ecb3167	0.39686128
226	0xbc98f7dc	-0.018672876
227	0x3c0d9a4a	0.008642742
228	0x3f753e4e	0.95798194
229	0x3ee5c886	0.4487955
230	0xbf917e48	-1.1366663
231	0xbf22e23f	-0.63626474
232	0xbf298a7e	-0.6622695
233	0xbf0af409	-0.5427862
234	0x3e9501a4	0.29102814
235	0xbf3b93d0	-0.7327242
236	0x3ef251f3	0.47328147
237	0xbf32a496	-0.6978239
238	0xbe5d7009	-0.2162477
239	0xbf79b6ae	-0.9754437
240	0xbe8f14e5	-0.2794563
241	0xbe399d93	-0.18126516
242	0x3e8e9d1a	0.27854234
243	0x3e958026	0.29199332
244	0xbe157872	-0.14596727
245	0x3eb9429f	0.3618364
246	0xbf025f3f	-0.50926584
247	0xbdb4f2f0	-0.08835399
248	0xbebddd74	-0.37083018
249	0x3ab1382c	0.0013520769
250	0xbf12f47e	-0.57404315
251	0x3e95fb51	0.29293302
252	0x3f62dcc1	0.88618094
253	0x3f513106	0.8171543
254	0x3e4835d5	0.19551785
255	0x3d44a7cb	0.048011582
