models/deeplog_key_model.pt (torch, 286380 bytes, 11 tensors)

embedding.weight f4 [30, 64]
0.0 0.0 0.0 0.0 0.0 0.0 0.0 0.0
0.0 0.0 0.0 0.0 0.0 0.0 0.0 0.0
0.0 0.0 0.0 0.0 0.0 0.0 0.0 0.0
0.0 0.0 0.0 0.0 0.0 0.0 0.0 0.0
0.0 0.0 0.0 0.0 0.0 0.0 0.0 0.0
0.0 0.0 0.0 0.0 0.0 0.0 0.0 0.0
0.0 0.0 0.0 0.0 0.0 0.0 0.0 0.0
0.0 0.0 0.0 0.0 0.0 0.0 0.0 0.0
-0.5778537 0.5663467 -0.3314138 0.60049593 -0.45821494 0.9648648 -0.30550545 -1.2918117
2.0585408 -0.32099098 -0.088019125 0.53660405 -1.3452429 1.218446 0.6703964 0.13043417
2.4935687 -1.2317469 1.2101401 0.51292735 -1.4214427 -1.3393475 0.5004292 0.13894597
0.31161466 -0.3625514 0.96679395 -0.81921196 -0.8871668 -0.45866045 -1.3138627 -0.59914327
-1.7480782 -1.0457499 -0.47101846 1.215266 -0.17251982 -0.19735324 -0.3579429 0.11957579
-0.58212525 -0.29406217 0.49050817 1.7215757 0.63143003 3.1767445 -0.1121943 -1.7250038
0.03559476 0.12118999 0.87499154 -1.9814786 -0.16284515 0.53068674 -1.4966681 1.1334188
1.7498034 0.349692 0.08862623 -0.7378921 -0.9911775 0.22792463 -0.74978876 -1.3313107
-1.6595021 0.9511598 0.8731838 -0.16023716 0.77016866 0.7904049 -0.057371106 -1.0176717
-0.32104433 -0.014424904 0.24665694 0.25173354 0.27169514 -0.32778853 0.51596653 0.34105602
1.4634798 0.6895768 -1.4424856 0.019298065 -0.15989718 -0.40642878 -0.6419552 0.9449636
-0.6085617 0.026791047 0.9954971 0.020747362 -1.1313689 -0.3148907 0.9195339 -0.42350993
-0.49638823 0.10060661 -0.07818637 1.5956024 -2.4240904 0.17485395 -0.5692098 -0.13500185
-0.048310634 1.6611407 -0.047267307 0.14327104 -0.70116615 -0.10745125 -1.4516886 -0.8365593
-0.19075224 -0.8232071 0.0290876 0.4705255 0.117161006 1.3806292 -0.91889554 0.74909294
0.7009305 0.59387416 0.4633253 -0.526536 -0.58506465 1.8346207 0.31393188 0.3558012
0.019980444 -0.042035766 1.0047519 0.5080352 0.13553666 -0.14227134 -0.36124894 0.18205708
0.2257322 -1.044955 0.54229826 0.18678768 -0.45608643 -0.18856627 -0.109904274 0.18504602
0.19383447 -0.17982367 -0.0830595 -0.15962556 0.2634493 0.4216594 0.56309944 0.16291891
0.1476759 0.49356958 -0.11741234 -0.114055835 -0.19911794 0.014254007 -0.20113334 -0.06917295
-0.30300063 -0.10969976 0.18605466 -0.23978618 -0.04324517 0.19680636 0.1389862 -0.026761599
0.04383662 -0.6195742 0.4144177 -1.0342993 -0.582849 0.020904599 -0.15035936 -0.16206312
0.7449158 -0.076867744 -0.17244379 -0.54307306 0.029171735 -0.40589237 -0.021592941 -0.102472894
-0.07429619 0.07305152 -0.31149304 -0.30283406 0.79974747 -1.2408161 -0.14098485 0.26469144
00000000: 0000 0000 0000 0000 0000 0000 0000 0000
00000010: 0000 0000 0000 0000 0000 0000 0000 0000
00000020: 0000 0000 0000 0000 0000 0000 0000 0000
00000030: 0000 0000 0000 0000 0000 0000 0000 0000
00000040: 0000 0000 0000 0000 0000 0000 0000 0000
00000050: 0000 0000 0000 0000 0000 0000 0000 0000
00000060: 0000 0000 0000 0000 0000 0000 0000 0000
00000070: 0000 0000 0000 0000 0000 0000 0000 0000
00000080: 0000 0000 0000 0000 0000 0000 0000 0000
00000090: 0000 0000 0000 0000 0000 0000 0000 0000
000000a0: 0000 0000 0000 0000 0000 0000 0000 0000
000000b0: 0000 0000 0000 0000 0000 0000 0000 0000
000000c0: 0000 0000 0000 0000 0000 0000 0000 0000
000000d0: 0000 0000 0000 0000 0000 0000 0000 0000
000000e0: 0000 0000 0000 0000 0000 0000 0000 0000
000000f0: 0000 0000 0000 0000 0000 0000 0000 0000
00000100: 38ee 13bf 19fc 103f 12af a9be 1aba 193f
00000110: 269b eabe 6101 773f 366b 9cbe 165a a5bf
00000120: 22bf 0340 ee58 a4be 5f43 b4bd e25e 093f
00000130: eb30 acbf 0af6 9b3f 199f 2b3f 8990 053e
00000140: a196 1f40 e2a9 9dbf dfe5 9a3f 354f 033f
00000150: d6f1 b5bf bd6f abbf 211c 003f da47 0e3e
00000160: f58b 9f3e 56a0 b9be cf7f 773f e0b7 51bf
00000170: 5d1d 63bf 8bd5 eabe a72c a8bf 7461 19bf
00000180: 07c1 dfbf 22db 85bf 5529 f1be d68d 9b3f
00000190: 09a9 30be f816 4abe 4b44 b7be 27e4 f43d
000001a0: 2906 15bf 518f 96be e323 fb3e 985c dc3f
000001b0: 66a5 213f c84f 4b40 20c6 e5bd edcc dcbf
000001c0: d0cb 113d 7532 f83d 72ff 5f3f 17a1 fdbf
000001d0: e1c0 26be 16db 073f d292 bfbf de13 913f
000001e0: 8ff9 df3f d40a b33e ab81 b53d 7fe6 3cbf
000001f0: cfbd 7dbf 1365 693e 28f2 3fbf 6468 aabf
00000200: 916a d4bf 357f 733f f988 5f3f 3615 24be
00000210: c629 453f fa57 4a3f f7fd 6abd 1143 82bf
00000220: ec5f a4be 6f56 6cbc a393 7c3e 38e3 803e
00000230: a01b 8b3e e6d3 a7be 6216 043f e59e ae3e
00000240: 4e53 bb3f 1b88 303f 5ea3 b8bf fa16 9e3c
00000250: 16bc 23be 6f17 d0be 2d57 24bf 22e9 713f
00000260: b3ca 1bbf e678 db3c e6d8 7e3f 5ff6 a93c
00000270: b2d0 90bf 5b39 a1be 9366 6b3f 4bd6 d8be
00000280: 9926 febe d70a ce3d 2d20 a0bd b33c cc3f
00000290: 4c24 1bc0 ea0c 333e bcb7 11bf ed3d 0abe
000002a0: 5fe1 45bd 42a0 d43f 5d9b 41bd a5b5 123e
000002b0: a07f 33bf 670f dcbd efd0 b9bf c028 56bf
000002c0: 8e54 43be b3bd 52bf 1e49 ee3c b8e8 f03e
000002d0: 1cf2 ef3d 75b8 b03f bd3c 6bbf 8ec4 3f3f
000002e0: 2e70 333f 2308 183f f938 ed3e 10cb 06bf
000002f0: ccc6 15bf dad4 ea3f aebb a03e 932b b63e
00000300: 07ae a33c b22d 2cbd b69b 803f 980e 023f
00000310: 1fca 0a3e 94af 11be 9ff5 b8be 2c6d 3a3e
00000320: 5826 673e 16c1 85bf 0fd4 0a3f 4545 3f3e
00000330: 2984 e9be 8417 41be 7e15 e1bd b47c 3d3e
00000340: 8b7c 463e b223 38be 191b aabd e274 23be
00000350: d4e2 863e bee3 d73e 4927 103f 37d4 263e
00000360: 5a38 173e 27b5 fc3e e275 f0bd 1b96 e9bd
00000370: 93e5 4bbe a389 693c e6f5 4dbe 8caa 8dbd
00000380: e622 9bbe 45aa e0bd 1d85 3e3e 828a 75be
00000390: d921 31bd 9b87 493e 6652 0e3e 243b dbbc
000003a0: 078e 333d 6a9c 1ebf 8f2e d43e eb63 84bf
000003b0: 9835 15bf 1f40 ab3c cef7 19be e0f3 25be
000003c0: cdb2 3e3f d66c 9dbd 1b95 30be d606 0bbf
000003d0: 90f9 ee3c 20d1 cfbe aee3 b0bc 4fdd d1bd
000003e0: 9a28 98bd 099c 953d 047c 9fbe 110d 9bbe
000003f0: 40bc 4c3f 10d3 9ebf 555e 10be a385 873e

lstm.weight_ih_l0 f4 [256, 64]
0.081550464 -0.39313754 0.33556622 0.80954665 -0.12758835 0.09636024 -0.52837706 -0.6162592
-0.916411 0.17965604 -0.2512647 -0.24019538 -0.46006382 -0.091795646 0.84497994 0.137772
-0.23477238 0.17368416 0.110268995 -0.375208 0.028773498 -0.29015034 -0.52922827 -0.7724756
-0.5565885 0.72001946 0.31220686 -0.7897243 -0.005972306 -0.29069656 0.22762927 -0.19472963
-0.014537954 -0.018205695 -0.20188901 0.055038713 0.34631175 0.9383107 -0.080190025 0.07616032
-0.044640057 -0.33802122 -0.3631777 0.05947935 0.3726967 0.0049392525 0.4017293 0.23210934
0.679615 -0.14373714 -0.55329067 0.24649452 0.40969616 0.1855571 -0.10229348 -0.1306554
-0.33352116 0.08438 -0.09396108 0.31056947 0.7578468 -0.08346651 0.084411524 -0.18456139
-0.27980924 -0.6279764 0.33458742 0.72146475 0.31284338 0.68304557 0.46434182 -0.52438056
0.40702817 0.50106007 0.23295668 -0.1843879 -0.10970408 0.21114168 0.30706272 0.5702757
-0.040446386 -0.30412242 0.87835324 -0.8289917 -0.09843729 0.5950546 -0.44766855 0.34217626
-0.6736182 0.3784412 1.0824903 -0.5504394 0.11804125 -0.5432194 0.1050533 -0.95801526
-0.86670446 0.019018007 0.32205075 0.4354593 -0.4662981 0.35899812 -0.55749154 0.05005281
-0.9940878 0.087856136 0.28005916 -0.38363665 1.024723 0.812972 0.6473909 0.21207134
0.7198551 -0.4955652 -0.20816721 0.368427 0.1083701 -0.43330485 0.380032 0.3535926
-0.05316465 0.1292328 -0.6882173 0.1335328 0.28931773 -0.055730317 -0.25939018 0.35014695
0.016586836 -0.27532002 -0.4729534 -0.16231413 0.2549884 -0.30017123 -0.13503784 0.6868735
0.35069808 -0.2570128 -0.19170983 -0.02308939 -0.018866574 -0.028016059 -0.17185551 -0.30783504
-0.3356909 -0.01085574 0.008918278 0.05269763 0.11052534 -0.010992446 0.46413815 -0.08554008
0.5995798 -0.33065397 -0.14828743 0.55045843 0.068962924 0.3741015 -0.4777165 0.021994224
0.11361611 -0.26189795 0.06321532 -0.40076503 0.25648576 -0.0057025803 0.38454902 -0.24652939
0.24502152 -0.51964545 0.4541004 -0.13192426 0.13898706 -0.48094663 0.46811846 0.38738653
0.35583517 0.5352037 -0.21323971 -0.5854671 -0.33139977 -0.025471438 0.43934172 -0.055989906
-0.14605503 -0.62678695 -0.79216146 0.24546616 -0.13347663 -0.3066769 -0.19288772 0.3689061
0.9156623 -0.46416622 -0.36356044 0.35070643 0.48404685 0.5704732 -0.15340799 -0.34563854
0.3303944 -0.2548408 -0.16188249 -0.76330626 -0.13293914 0.1495826 -0.024395267 -0.45316222
-0.8102948 -0.21753621 -0.034710158 0.10230599 -0.007664164 0.64344335 -0.062287915 -0.04989468
0.050126564 -0.2508566 -0.10501508 -0.12402019 -0.125766 0.04299626 -0.6196094 -0.020079024
-0.65500134 0.9293124 -0.5210134 -0.09582892 -0.2480477 0.7106336 0.14279886 0.08806585
-0.786878 -0.33081755 -0.10105655 0.8247303 0.7456584 -0.26592508 -0.23157156 -0.29258722
0.4746723 -0.3711074 -0.3656059 0.49322972 -0.27589932 0.14382702 0.24852109 -0.5630478
0.5150044 -0.11995119 -0.08473822 -0.042705547 0.19176774 -0.16235511 -0.9575778 -0.25674456
00000000: ee03 a73d 5349 c9be 56cf ab3e 733e 4f3f
00000010: 85a6 02be 8458 c53d b843 07bf 2ac3 1dbf
00000020: e999 6abf c1f7 373e c4a5 80be c7f5 75be
00000030: 7c8d ebbe 5bff bbbd 9b50 583f 1a14 0d3e
00000040: 2c68 70be 43da 313e b6d4 e13d 431b c0be
00000050: 66b6 eb3c 968e 94be 817b 07bf f6c0 45bf
00000060: 957c 0ebf 3253 383f 94d9 9f3e 5f2b 4abf
00000070: 55b3 c3bb 2ed6 94be a617 693e 3467 47be
00000080: 9930 6ebc 1c24 95bc febb 4ebe 4670 613d
00000090: c64f b13e 2135 703f ab3a a4bd f1f9 9b3d
000000a0: 7ed8 36bd 1e11 adbe 6df2 b9be 9ea0 733d
000000b0: 1ad2 be3e 74d9 a13b 76af cd3e 12ae 6d3e
000000c0: 40fb 2d3f d42f 13be 75a4 0dbf 0f69 7c3e
000000d0: b2c3 d13e ae02 3e3e 3e7f d1bd 87ca 05be
000000e0: 49c3 aabe 6ccf ac3d ab6e c0bd f602 9f3e
000000f0: 3f02 423f 7df0 aabd f3df ac3d a9fd 3cbe
00000100: 2843 8fbe 10c3 20bf 0b4f ab3e eab1 383f
00000110: 022d a03e 13dc 2e3f 36be ed3e ce3d 06bf
00000120: ff65 d03e 7945 003f 328c 6e3e 2fd0 3cbe
00000130: 88ac e0bd 8635 583e 5337 9d3e 97fd 113f
00000140: 1cab 25bd efb5 9bbe c2db 603f cd38 54bf
00000150: 7d99 c9bd 8055 183f d034 e5be ba31 af3e
00000160: 3e72 2cbf 0cc3 c13e 0b8f 8a3f 99e9 0cbf
00000170: 9cbf f13d 6d10 0bbf 2f26 d73d 7d40 75bf
00000180: 58e0 5dbf a7cb 9b3c d6e3 a43e 85f4 de3e
00000190: a0be eebe 9ace b73e c4b7 0ebf 2d04 4d3d
000001a0: 8a7c 7ebf ebed b33d ea63 8f3e 066c c4be
000001b0: 202a 833f ef1e 503f 69bb 253f 3b29 593e
000001c0: 6d48 383f b9ba fdbe c929 55be 77a2 bc3e
000001d0: 25f1 dd3d 22da ddbe 8e93 c23e 170a b53e
000001e0: 2dc3 59bd 9a55 043e 022f 30bf d3bc 083e
000001f0: 7421 943e 7945 64bd cace 84be 7646 b33e
00000200: 1ee1 873c bff6 8cbe f326 f2be ad35 26be
00000210: d78d 823e 0bb0 99be 5c47 0abe f1d6 2f3f
00000220: b38e b33e 2f97 83be 954f 44be f625 bdbc
00000230: 138e 9abc ef81 e5bc e4fa 2fbe 8e9c 9dbe
00000240: addf abbe 46dc 31bc f81d 123c 78d9 573d
00000250: 1c5b e23d a919 34bc 84a3 ed3e a32f afbd
00000260: 107e 193f 7a4b a9be a9d8 17be d8ea 0c3f
00000270: 6f3c 8d3d 3b8a bf3e 4297 f4be 3b2d b43c
00000280: 90af e83d 7d17 86be 0977 813d 1331 cdbe
00000290: 1a52 833e b6dc babb 9ce3 c43e 3372 7cbe
000002a0: ece6 7a3e 7c07 05bf d97f e83e 2717 07be
000002b0: a052 0e3e a33e f6be 39ad ef3e 8757 c63e
000002c0: 0730 b63e 1c03 093f 835b 5abe 2ce1 15bf
000002d0: 3bad a9be 7aa9 d0bc 66f1 e03e ac55 65bd
000002e0: 738f 15be 1c75 20bf 18cb 4abf 7b5b 7b3e
000002f0: 19ae 08be c104 9dbe 5c84 45be 43e1 bc3e
00000300: d868 6a3f 32a7 edbe 9824 babe cb8f b33e
00000310: fdd4 f73e 880a 123f fc16 1dbe 89f7 b0be
00000320: 7429 a93e 7e7a 82be 86c4 25be 0a68 43bf
00000330: 3321 08be 2e2c 193e 95d8 c7bc e104 e8be
00000340: 7b6f 4fbf d0c1 5ebe 3d2c 0ebd ce85 d13d
00000350: ab23 fbbb b4b8 243f 9d21 7fbd 5d5e 4cbd
00000360: 8351 4d3d 4770 80be 2512 d7bd 4cfe fdbd
00000370: cdc8 00be d91c 303d b99e 1ebf c47c a4bc
00000380: 2bae 27bf 6be7 6d3f 2261 05bf f441 c4bd
00000390: 3700 7ebe 15ec 353f dd39 123e de5b b43d
000003a0: d670 49bf eb60 a9be bdf6 cebd 8621 533f
000003b0: 78e3 3e3f 5527 88be 1821 6dbe fecd 95be
000003c0: 3f08 f33e ca01 bebe b230 bbbe 9b88 fc3e
000003d0: ad42 8dbe 6447 133e 507c 7e3e e723 10bf
000003e0: 54d7 033f f8a8 f5bd 3b8b adbd 03ec 2ebd
000003f0: c35e 443e 6b40 26be d223 75bf 0674 83be

lstm.weight_hh_l0 f4 [256, 64]
0.35792547 -0.23060733 -0.120079905 0.40600753 0.0907497 -0.2670266 0.7389325 -0.49234676
-0.7268576 0.4700174 1.067501 0.4049428 -1.0248555 0.72730386 -1.1947758 -0.08424375
0.48574537 1.1934322 -0.7658242 0.6986327 -0.34632275 0.099608585 -0.40885952 0.015214362
0.503284 -0.6612325 0.90801114 -0.034497146 -0.45558688 -0.7428978 -0.55728644 -0.26566458
-0.52681506 0.88276184 -0.6260828 0.7976383 -0.07385112 -0.46056527 -0.7173786 -0.56158936
1.0414212 0.82544035 0.32977277 0.25777313 1.3596178 -0.22711796 -0.35314187 -0.77989763
-0.26402214 -0.77736294 0.44108853 -0.04058623 -0.46288046 -0.6673826 0.0496628 0.46790826
-0.677153 -1.8118557 0.44419605 0.24722244 0.3022463 0.1471763 0.15594217 0.19694532
-0.9800691 -0.23975712 0.12712398 -0.051156178 -0.3908256 0.069115095 -0.49183002 -0.6309054
-0.21870622 0.4896773 -0.050562017 0.046625033 -0.035887163 0.04264183 -0.5145182 -0.29923472
-0.7890899 0.16323371 -0.009442529 -0.04415156 -0.44790283 0.1528046 0.117564365 -0.2994247
-0.4095434 0.4600878 -0.5120088 -0.5556464 -0.5509367 0.17464046 0.0803077 -0.6163108
-0.33293265 0.59344643 0.11494763 0.52546847 -0.17501165 -0.23383169 0.055394582 -0.10629727
0.14877121 0.3525849 -0.5398257 0.24156898 0.030050138 -0.23502237 -0.17964235 0.25316682
-0.07362316 -0.02372557 0.13753034 0.06950083 -0.048448414 -0.6045873 -0.39784184 0.50628966
-0.5161251 -0.0074863276 0.19026999 0.2548239 0.41935036 -0.74199265 0.19805126 -0.2575647
-0.21500465 -0.81921744 0.79625374 0.44876724 -0.48711646 0.49990013 0.15894221 0.008645533
-0.18408844 1.6434427 -0.19225982 -0.34332463 -1.4135989 -0.028244134 0.11219574 -0.60843194
-0.94592035 -0.9337525 -0.22553699 0.06913547 -0.9936607 0.31594378 -0.6358588 0.46497455
-0.33665892 0.75280476 -0.0808557 -0.3700935 -0.23869203 -0.7429448 1.3649539 -0.36460215
-0.43213978 -0.51147115 0.558728 0.4517011 -0.19426917 0.0020080837 -1.2069142 -1.0574262
0.20163552 1.5886208 -1.3241916 0.5783912 1.0030301 0.5581563 -0.92769873 -0.054436777
-1.5109724 -1.1113582 -0.43002647 0.29193136 -0.28365463 0.09755917 0.43341833 0.32135385
-0.9895188 0.14447832 0.7429163 -0.6311978 0.15862218 0.09983389 -0.10685457 -0.7019704
0.7071529 0.4231744 1.3213371 0.011312823 0.5158396 0.9544649 0.25066674 -0.64174795
0.054196753 0.5960585 0.46963865 0.20726562 0.4604521 0.19758281 0.00017901958 0.20415191
0.5444756 1.6303021 0.07677706 0.66995233 -0.39059287 0.6551489 -0.75713354 -0.88628834
-0.48454958 -0.97296846 0.2087598 -0.88428885 0.6740008 0.008608089 -0.8492249 0.09432616
-0.1888626 0.072951056 1.7478163 0.8378952 -0.67080057 0.4011436 0.53643185 -0.7713257
-0.38311023 0.012839632 -0.47867036 1.2185854 -0.2550143 0.74810815 -0.06789435 -0.31628823
0.5952479 0.6590346 0.4060002 0.35195032 -0.18048203 -1.4361181 -0.82478106 -0.32801494
0.67480505 -0.806374 0.4500279 0.6834271 0.08137035 0.0028367874 0.13998623 0.2893993
00000000: 0242 b73e 5424 6cbe 74ec f5bd 38e0 cf3e
00000010: fbda b93d b6b7 88be ae2a 3d3f e014 fcbe
00000020: 5713 3abf 1fa6 f03e dfa3 883f aa54 cf3e
00000030: 772e 83bf 9630 3a3f 6aee 98bf fd87 acbd
00000040: 9eb3 f83e 63c2 983f 0e0d 44bf 98d9 323f
00000050: 3751 b1be 96ff cb3d 0956 d1be a945 793c
00000060: 38d7 003f 8846 29bf 6b73 683f e14c 0dbd
00000070: af42 e9be 8d2e 3ebf 53aa 0ebf 3005 88be
00000080: 5add 06bf aefc 613f f646 20bf 0632 4c3f
00000090: 423f 97bd 36cf ebbe 20a6 37bf 52c4 0fbf
000000a0: 4a4d 853f 0f50 533f fad7 a83e d7fa 833e
000000b0: f507 ae3f 9c91 68be 03cf b4be 5fa7 47bf
000000c0: e92d 87be 4201 47bf 5bd6 e13e bf3d 26bd
000000d0: abfe ecbe 96d9 2abf 386b 4b3d ac91 ef3e
000000e0: e659 2dbf e3ea e7bf aa6d e33e e127 7d3e
000000f0: 07c0 9a3e 62b5 163e 4eaf 1f3e 09ac 493e
00000100: cfe5 7abf e482 75be ca2c 023e 2489 51bd
00000110: 4b1a c8be 378c 8d3d 25d1 fbbe 0483 21bf
00000120: 86f4 5fbe fcb6 fa3e 1e1a 4fbd e4f9 3e3d
00000130: 6bfe 12bd 33a9 2e3d 77b7 03bf 4b35 99be
00000140: cc01 4abf bd26 273e d6b4 1abc 44d8 34bd
00000150: 8553 e5be cf78 1c3e 96c5 f03d 324e 99be
00000160: acaf d1be a190 eb3e 0213 03bf d83e 0ebf
00000170: 300a 0dbf f3d4 323e 5d78 a43d 8bc6 1dbf
00000180: 2676 aabe 1bec 173f aa69 eb3d 1a85 063f
00000190: 4136 33be 9371 6fbe 6ee5 623d 62b2 d9bd
000001a0: 7b57 183e 0286 b43e 0432 0abf dc5d 773e
000001b0: b52b f63c b4a9 70be 2af4 37be 159f 813e
000001c0: bdc7 96bd 205c c2bc c1d4 0c3e 7356 8e3d
000001d0: d871 46bd 3cc6 1abf edb1 cbbe 339c 013f
000001e0: c620 04bf de4f f5bb 23d6 423e 4778 823e
000001f0: 17b5 d63e 3bf3 3dbf f3cd 4a3e 85df 83be
00000200: 2e2a 5cbe 3cb8 51bf 49d7 4b3f d2c4 e53e
00000210: 5467 f9be e9f2 ff3e bfc1 223e fea5 0d3c
00000220: ae81 3cbe 555c d23f c2df 44be 3fc8 afbe
00000230: cff0 b4bf 3e60 e7bc e1c6 e53d 32c2 1bbf
00000240: d627 72bf 670a 6fbf 2bf3 66be e696 8d3d
00000250: 8c60 7ebf 62c3 a13e a4c7 22bf 2511 ee3e
00000260: 8f5e acbe d0b7 403f ac97 a5bd e57c bdbe
00000270: af6b 74be a131 3ebf cfb6 ae3f 22ad babe
00000280: 6d41 ddbe c6ef 02bf cc08 0f3f 5e45 e73e
00000290: 7fee 46be 0e9a 033b 2a7c 9abf be59 87bf
000002a0: 8b79 4e3e ed57 cb3f 1c7f a9bf 7211 143f
000002b0: 4a63 803f 55e3 0e3f aa7d 6dbf 19f9 5ebd
000002c0: 8b67 c1bf fc40 8ebf 6e2c dcbe 0778 953e
000002d0: 2e3b 91be 1acd c73d 02e9 dd3e 7e88 a43e
000002e0: 1b51 7dbf 20f2 133e c32f 3e3f 2e96 21bf
000002f0: da6d 223e b675 cc3d 92d6 dabd 55b4 33bf
00000300: f907 353f 51aa d83e 9321 a93f 6b59 393c
00000310: 100e 043f d057 743f 6457 803e 9849 24bf
00000320: 6afd 5d3d 4a97 183f 7a74 f03e 703d 543e
00000330: 61c0 eb3e 2653 4a3e 34b7 3b39 330d 513e
00000340: c162 0b3f bdad d03f 4b3d 9d3d ff81 2b3f
00000350: cafb c7be d7b7 273f 81d3 41bf cbe3 62bf
00000360: e216 f8be 7614 79bf 21c5 553e c160 62bf
00000370: 518b 2c3f f108 0d3c ce66 59bf 132e c13d
00000380: 3365 41be 5d67 953d 72b8 df3f 4d80 563f
00000390: 96b9 2bbf b262 cd3e 9953 093f 9a75 45bf
000003a0: 0627 c4be 525d 523c 4814 f5be 9bfa 9b3f
000003b0: 3c91 82be 0484 3f3f 310c 8bbd 88f0 a1be
000003c0: 2b62 183f 7eb6 283f 42df cf3e d532 b43e
000003d0: 48d0 38be b8d2 b7bf da24 53bf 93f1 a7be
000003e0: 06c0 2c3f 876e 4ebf 0f6a e63e 14f5 2e3f
000003f0: 80a5 a63d 65e9 393b 8d58 0f3e 252c 943e

lstm.bias_ih_l0 f4 [256]
0.27539855 0.08651763 0.047288578 0.11971735 0.19512959 0.70052177 0.022658728 0.54136205
0.3279431 -0.33834225 0.02087548 0.0013076104 -0.15720028 0.3712803 0.5442889 0.23360027
0.04930004 0.2021525 0.40732172 0.14254296 0.012715928 0.33055517 -0.06015654 0.24203674
0.26847926 0.21355684 0.33975524 -0.005154427 0.15400192 0.10190894 0.84164053 0.04644439
0.68007207 0.33489236 0.4459266 0.12704098 -0.084745325 0.3981234 1.0464497 0.18112782
-0.34154305 0.19616027 0.190286 0.027460244 -0.059800312 0.24196827 -0.29145142 0.40376917
0.34216794 -0.11752616 -0.13812187 0.25707287 0.1411386 0.40578207 0.13787284 0.25966382
0.52590734 0.154314 0.06832806 -0.17159791 -0.025170216 0.37610847 0.413922 0.0631239
0.4280816 0.49871334 0.3595284 0.2913067 0.1097043 0.6566619 -0.31507427 0.091423005
0.14040555 -0.13464555 0.3017691 0.34247774 0.18209903 0.36130324 0.034137983 0.46004915
0.37895522 0.22223845 0.2926525 0.44378465 -0.0657357 0.3887791 -0.3186634 -0.18297327
0.38233232 0.003043848 0.31829035 -0.0019034656 0.20246167 -0.1882061 0.54069984 0.10620672
0.28071135 0.33317885 0.3062498 0.3396873 0.14016834 -0.25615 -0.093914814 0.41780543
0.16551568 0.3289561 -0.12664406 0.34744462 0.64246994 0.13369986 0.6427279 0.29182982
0.18325482 0.45598367 0.4747302 0.19683921 0.3005802 0.43597496 -0.17378485 0.21082026
-0.06497276 -0.34474236 0.22820623 0.37516633 0.12592414 0.64567393 -0.03692314 -0.21140066
0.07255665 -0.009182915 -0.025715701 0.58480847 -0.018873947 0.1662702 -0.05884048 -0.25410488
-0.21463618 -0.0251172 0.29523522 0.6493444 -0.35305968 -0.025534077 -0.36520293 -0.1927604
-0.44180018 0.054534245 0.32044056 0.089505404 -0.2600527 0.08040789 -0.12496475 0.17173122
-0.2213936 0.04555805 0.38935676 -0.1598883 -0.24579746 -0.10918894 0.20486702 -0.07930317
-0.14195243 -0.15066653 -0.22061 -0.14845733 -0.087003 -0.47561908 -0.07040503 0.034623988
-0.44849047 0.0898515 -0.04040524 -0.6409818 0.43346453 -0.007197268 -0.45754108 -0.88652456
-0.5936931 0.015024497 0.15597396 0.26574174 -0.42336774 -0.3511744 -0.20353763 0.12869024
0.28556755 0.034681015 0.3948289 0.040849306 0.2808169 -0.41812804 0.10208668 -0.027579065
0.2771854 0.31480816 0.673098 0.36907846 0.3320763 0.17827035 0.51965284 0.4827225
0.40295088 0.5216341 0.32918903 -0.13668965 0.37259522 0.40083528 0.41840178 -0.16910337
0.15682957 0.31967923 0.3538977 0.5885735 -0.13071212 0.20836912 0.490461 0.32991573
-0.022034453 0.07176667 0.48439664 0.5858908 0.09586966 0.22976756 0.010779779 0.33510312
0.19786686 0.43642756 0.12645504 0.10383989 -0.08199628 -0.09459459 0.5037632 0.10714122
0.4753648 -0.057829928 0.44722393 0.0768465 -0.049431544 0.057131086 -0.046870384 -0.21279128
0.33146387 0.43826184 0.12850012 0.45443192 0.21479519 0.16111863 0.24164627 0.78988975
0.63427985 -0.03042367 -0.18503688 0.32132137 0.25208467 0.11425661 0.60241705 0.30746007
00000000: 0a01 8d3e 2830 b13d abb1 413d 5f2e f53d
00000010: 0dd0 473e 6555 333f cc9e b93c b496 0a3f
00000020: 28e8 a73e 323b adbe 0e03 ab3c 2064 ab3a
00000030: 1cf9 20be 7418 be3e 8456 0b3f e934 6f3e
00000040: d7ee 493d 1101 4f3e 798c d03e c8f6 113e
00000050: 7856 503c 873e a93e b466 76bd 7bd8 773e
00000060: 1d76 893e a5ae 5a3e 66f4 ad3e 78e6 a8bb
00000070: aeb2 1d3e a2b5 d03d c175 573f 793c 3e3d
00000080: 3419 2e3f 0377 ab3e 7e50 e43e 0817 023e
00000090: f58e adbd d5d6 cb3e 10f2 853f 9279 393e
000000a0: bbde aebe 3dde 483e 55da 423e 4ef4 e03c
000000b0: 2cf1 74bd 88c6 773e 1f39 95be d5ba ce3e
000000c0: a330 af3e 8eb1 f0bd d26f 0dbe 0e9f 833e
000000d0: a386 103e abc2 cf3e 8a2e 0d3e a8f2 843e
000000e0: dda1 063f 7d04 1e3e 95ef 8b3d 5db7 2fbe
000000f0: c531 cebc 4a91 c03e 96ed d33e 1a47 813d
00000100: 832d db3e 5b57 ff3e 1b14 b83e 2726 953e
00000110: a6ac e03d ff1a 283f 6a51 a1be fc3b bb3d
00000120: 79c6 0f3e 86e0 09be 7b81 9a3e 3e59 af3e
00000130: 2b78 3a3e bdfc b83e 45d4 0b3d 908b eb3e
00000140: 6b06 c23e 7a92 633e 8cd6 953e be37 e33e
00000150: 70a0 86bd 0e0e c73e d927 a3be 585d 3bbe
00000160: 10c1 c33e 4c7b 473b f4f6 a23e b57d f9ba
00000170: 1d52 4f3e 1ab9 40be 4e6b 0a3f e982 d93d
00000180: 66b9 8f3e 6b96 aa3e c6cc 9c3e 7eeb ad3e
00000190: 4a88 0f3e 1826 83be 6956 c0bd 98ea d53e
000001a0: f17c 293e ef6c a83e fbae 01be 43e4 b13e
000001b0: e978 243f 9ee8 083e d189 243f b86a 953e
000001c0: 27a7 3b3e b176 e93e d60f f33e 3890 493e
000001d0: a6e5 993e 1c38 df3e a8f4 31be 44e1 573e
000001e0: 7010 85bd 1282 b0be e5ae 693e cd15 c03e
000001f0: 42f2 003e e34a 253f b83c 17bd 6a79 58be
00000200: 9598 943d f073 16bc bca9 d2bc 02b6 153f
00000210: 899d 9abc bc42 2a3e b702 71bd 091a 82be
00000220: 96c9 5bbe 96c2 cdbc 1229 973e 6f3b 263f
00000230: 3dc4 b4be d72c d1bc e1fb babe fb62 45be
00000240: a233 e2be 4d5f 5f3d c910 a43e 9c4e b73d
00000250: a125 85be e4ac a43d 85ed ffbd 4fda 2f3e
00000260: 01b5 62be 149b 3a3d c559 c73e c2b9 23be
00000270: 54b2 7bbe 739e dfbd a9c8 513e b369 a2bd
00000280: fa5b 11be 5448 1abe 96e7 61be 3305 18be
00000290: a12e b2bd 5884 f3be 8330 90bd e2d1 0d3d
000002a0: 8ba0 e5be 1004 b83d f77f 25bd 6217 24bf
000002b0: 10ef dd3e 0fd7 ebbb d342 eabe 46f3 62bf
000002c0: 45fc 17bf 4f29 763c a3b7 1f3e 4d0f 883e
000002d0: a8c3 d8be 22cd b3be 2b6c 50be 60c7 033e
000002e0: e935 923e ae0d 0e3d 0327 ca3e 9a51 273d
000002f0: 3cc7 8f3e e114 d6be d212 d13d 7eed e1bc
00000300: 3feb 8d3e 892e a13e 2750 2c3f daf7 bc3e
00000310: e805 aa3e 818c 363e f807 053f 6727 f73e
00000320: 944f ce3e d089 053f 778b a83e 5ff8 0bbe
00000330: cdc4 be3e 483a cd3e c238 d63e 6f29 2dbe
00000340: ee97 203e ffac a33e 1432 b53e c1ac 163f
00000350: 66d9 05be b75e 553e b41d fb3e b7ea a83e
00000360: 9981 b4bc 67fa 923d d602 f83e f1fc 153f
00000370: 5057 c43d 3048 6b3e ac9d 303c a392 ab3e
00000380: 9c9d 4a3e 6f73 df3e 6e7d 013e 02aa d43d
00000390: aaed a7bd cfba c1bd a0f6 003f db6c db3d
000003a0: 0463 f33e 13df 6cbd 89fa e43e b361 9d3d
000003b0: bb78 4abd 4902 6a3d 29fb 3fbd f5e5 59be
000003c0: a2b5 a93e db63 e03e 8995 033e 4dab e83e
000003d0: 45f3 5b3e 48fc 243e 1f72 773e 3736 4a3f
000003e0: 2a60 223f 0f3b f9bc 4f7a 3dbe 3c84 a43e
000003f0: 3e11 813e 5fff e93d 0138 1a3f 686b 9d3e

lstm.bias_hh_l0 f4 [256]
0.20541994 0.26195487 0.0049398956 0.0120665 0.24223404 0.6810959 0.14531295 0.5058578
0.25748688 -0.12641989 0.01111695 0.11469961 -0.2422991 0.23596564 0.4714559 0.31463125
0.19011898 0.16615026 0.33266678 0.055276178 0.03345815 0.413448 0.06222667 0.1970299
0.48558605 0.00410847 0.41278094 0.1028868 0.14328995 0.26950398 0.8469835 0.10003299
0.598511 0.19832937 0.23466183 0.21736269 0.06470119 0.57231796 0.99444497 0.35011226
-0.29528233 0.15024443 0.12241006 -0.012698902 0.021291146 0.18911396 -0.100062296 0.22558609
0.3776597 -0.06608853 -0.14353834 0.16603208 0.09745345 0.3536208 0.11439922 0.12662852
0.54119074 -0.011307974 -0.15149073 -0.07247186 -0.03322724 0.4703859 0.58125603 -0.01909005
0.39866456 0.5397423 0.18299 0.19869931 0.19797723 0.66468877 -0.27720973 0.3245265
0.051774155 -0.0634361 0.34471235 0.518829 0.19742684 0.2733164 0.07471149 0.51744133
0.21519595 0.30590996 0.11083424 0.41913062 -0.09668456 0.50105464 -0.36346683 -0.25770772
0.29220924 0.0011468027 0.1733799 0.15402427 0.3480883 -0.14699887 0.5669606 0.17522882
0.35350356 0.17810729 0.16442595 0.3285088 0.31075826 -0.26695436 0.009361935 0.54863024
0.07276987 0.4111438 0.04109501 0.26963526 0.5003747 0.057464022 0.63104135 0.32012922
0.19711201 0.46907333 0.4343469 0.104862496 0.1325656 0.31355798 -0.2716111 0.21448636
-0.09770307 -0.22077647 0.091802806 0.21841061 0.1298475 0.6635532 -0.13806207 -0.059188876
-0.0027463846 0.08269158 -0.049903095 0.6160245 -0.053152233 -0.038043212 -0.10283206 -0.29142293
-0.26936123 -0.0006048631 0.34147257 0.67862254 -0.2990615 -0.03958169 -0.25310612 -0.36013994
-0.33713466 0.037679806 0.20519806 0.07144776 -0.3879138 -0.073979564 -0.16731969 0.12610799
-0.1536945 0.13743828 0.29518476 -0.08199698 -0.4251086 -0.3081493 0.18575798 0.13013922
-0.120883256 -0.12878105 -0.08322249 -0.12170961 -0.16315383 -0.506513 -0.17896132 0.023672014
-0.31894127 -0.029297555 -0.108600564 -0.6505606 0.57029366 -0.14525987 -0.34784147 -0.8964597
-0.39906058 -0.035953056 0.08849256 0.06808317 -0.3836339 -0.33695626 0.0036453682 0.1056235
0.11475823 -0.18823782 0.40787885 0.09867509 0.2557271 -0.5193665 -0.028765703 -0.019796822
0.29786715 0.35390732 0.80518275 0.32198763 0.29807186 -0.04416539 0.33889207 0.44919434
0.44996303 0.4456959 0.2984589 -0.14545071 0.2900014 0.35165733 0.3246023 -0.038613975
0.15061742 0.35650888 0.16904773 0.39498043 -0.22006401 0.30121055 0.664548 0.3806949
-0.000285817 0.14863634 0.62138784 0.57717305 0.15025105 0.29754165 0.010718923 0.5147512
0.08462489 0.5638852 0.19529411 0.12960854 -0.23014048 -0.11920906 0.4328867 0.019795066
0.5643081 0.032653395 0.3128452 0.0019556691 -0.14535649 0.0487119 0.010113442 -0.26902637
0.4439289 0.26344773 0.14382629 0.4436594 0.05201817 0.120498665 0.47429162 0.8742977
0.56443465 -0.06312005 -0.21344933 0.353288 0.30426103 0.0032546767 0.62179285 0.13967355
00000000: 9b59 523e f31e 863e d9de a13b 92b2 453c
00000010: 330c 783e 4d5c 2e3f ebcc 143e e67f 013f
00000020: 52d5 833e 3774 01be de23 363c a1e7 ea3d
00000030: 411d 78be faa0 713e ab62 f13e 5917 a13e
00000040: 8dae 423e 4b23 2a3e 4d53 aa3e 4669 623d
00000050: 6a0b 093d 75af d33e 65e1 7e3d 35c2 493e
00000060: bc9e f83e 58a0 863b 0658 d33e 51b6 d23d
00000070: 9aba 123e 6dfc 893e e9d3 583f 19de cc3d
00000080: 0438 193f db16 4b3e 314b 703e 5394 5e3e
00000090: 0f82 843d 6e83 123f f293 7e3f ea41 b33e
000000a0: 3f2f 97be add9 193e 20b2 fa3d 0e0f 50bc
000000b0: c56a ae3c 17a7 413e 76ed ccbd 0a00 673e
000000c0: 9d5c c13e 6c59 87bd b7fb 12be 5004 2a3e
000000d0: ad95 c73d c90d b53e 234a ea3d e8aa 013e
000000e0: 7a8b 0a3f 1545 39bc 6320 1bbe 206c 94bd
000000f0: 4919 08bd 6cd6 f03e 32cd 143f bd62 9cbc
00000100: c31d cc3e 8d2c 0a3f bb61 3b3e d577 4b3e
00000110: 8bba 4a3e 0b29 2a3f 6fee 8dbe 5628 a63e
00000120: 2311 543d c9ea 81bd 237e b03e fad1 043f
00000130: 432a 4a3e 21f0 8b3e 5602 993d 0977 043f
00000140: 545c 5c3e 3ba0 9c3e 10fd e23d 4a98 d63e
00000150: 8e02 c6bd 1e45 003f 5318 babe 44f2 83be
00000160: 739c 953e 5050 963a 808a 313e 8ab8 1d3e
00000170: a138 b23e df86 16be 5424 113f 2f6f 333e
00000180: 6bfe b43e c261 363e 475f 283e 4e32 a83e
00000190: b51b 9f3e 3eae 88be cd62 193c 0873 0c3f
000001a0: 5f08 953d 7181 d23e 3e53 283d a20d 8a3e
000001b0: 8e18 003f 655f 6b3d ed8b 213f fae7 a33e
000001c0: bbd7 493e 612a f03e b862 de3e 26c2 d63d
000001d0: 47bf 073e ac8a a03e 9c10 8bbe 50a2 5b3e
000001e0: 8c18 c8bd 3a13 62be 1c03 bc3d 08a7 5f3e
000001f0: bef6 043e 9fde 293f 2560 0dbe 0970 72bd
00000200: b0fc 33bb 345a a93d 3067 4cbd c8b3 1d3f
00000210: 28b6 59bd 33d3 1bbd 9d99 d2bd 6335 95be
00000220: b7e9 89be ad8f 1eba 7ed5 ae3e 35ba 2d3f
00000230: 971e 99be 6920 22bd 2097 81be 4364 b8be
00000240: ea9c acbe 2456 1a3d 711f 523e 3453 923d
00000250: a39c c6be 9982 97bd da55 2bbe 7422 013e
00000260: 1762 1dbe 9fbc 0c3e 7522 973e 08ee a7bd
00000270: d6a7 d9be bfc5 9dbe 5737 3e3e 3743 053e
00000280: a491 f7bd 2edf 03be 8e70 aabd e342 f9bd
00000290: cc11 27be d6aa 01bf a341 37be d0eb c13c
000002a0: 454c a3be 6d01 f0bc f969 debd 248b 26bf
000002b0: c4fe 113f 01bf 14be 4718 b2be 627e 65bf
000002c0: ab51 ccbe 8343 13bd 963b b53d 306f 8b3d
000002d0: aa6b c4be 8885 acbe 21e7 6e3b 2251 d83d
000002e0: 5d06 eb3d 6ac1 40be 7fd5 d03e 2a16 ca3d
000002f0: aaee 823e 34f5 04bf 0da6 ebbc f22c a2bc
00000300: 0b82 983e 5733 b53e 7520 4e3f 90db a43e
00000310: e09c 983e c5e6 34bd 4383 ad3e cdfc e53e
00000320: 8e61 e63e 4132 e43e 9bcf 983e 08f1 14be
00000330: 107b 943e 6e0c b43e 4632 a63e b029 1ebd
00000340: 743b 1a3e 5588 b63e d91a 2d3e e03a ca3e
00000350: 7658 61be 4538 9a3e d11f 2a3f 71ea c23e
00000360: b5d9 95b9 2034 183e 4613 1f3f 9dc1 133f
00000370: 69db 193e 6157 983e 6c9e 2f3c bcc6 033f
00000380: d04f ad3d c85a 103f 2efb 473e 1ab8 043e
00000390: f2a9 6bbe e123 f4bd 53a3 dd3e 4329 a23c
000003a0: 7f76 103f 91bf 053d 3f2d a03e af2a 003b
000003b0: 55d8 14be 2186 473d dab2 253c d3bd 89be
000003c0: a64a e33e 9fe2 863e 3347 133e 5327 e33e
000003d0: 0111 553d 01c8 f63d 5ad6 f23e f9d1 5f3f
000003e0: ca7e 103f 1645 81bd 7692 5abe 2ae2 b43e
000003f0: 1ac8 9b3e 6a4c 553b d12d 1f3f 9506 0f3e

lstm.weight_ih_l1 f4 [256, 64]
0.0530817 -0.017538939 0.60233605 -0.58672863 0.17569526 0.112349704 0.45195177 0.54243535
0.09327569 0.2425549 0.051792014 -0.7334052 -0.0107282065 0.22386919 0.34692714 -0.6555365
0.552558 0.46280318 0.70836383 0.10036958 0.2505857 -0.1900628 -0.2714227 0.30372527
-0.30471107 -0.20796432 0.34924075 0.054918636 -0.3493915 -0.78513265 0.45960045 -0.4762185
-0.10472467 0.64031535 0.2032949 -0.073366 0.51454467 -0.30462575 0.018480286 -0.26378036
0.016392637 0.49686673 -0.7662526 0.5010493 0.07326966 0.02831798 -0.16678573 -1.0603769
-0.65902597 -0.40115613 -0.41530022 -1.0070803 0.02359767 -0.5586951 -0.61247027 0.7393608
0.26522467 -0.6864883 0.1158591 0.1314374 0.5319579 -0.036001127 -0.3911372 0.45378393
-1.0840205 0.110474184 -0.7052002 0.91526765 0.093973935 -0.33306232 -0.021352086 -0.43246314
0.018433696 -0.1522608 -0.17963986 -0.146597 0.51059884 0.8772553 0.3803992 -1.0686507
-0.0025650947 -0.60211384 0.1875833 -0.20948762 -0.15409687 -0.605815 -0.009638712 -0.348518
0.9687322 -0.319892 0.13683096 0.042280845 0.56176394 -0.5683766 -0.9311406 -0.7703031
-0.0069422885 0.19399796 -0.0029050305 0.3911565 0.10868081 0.12208557 -0.23653923 0.12841123
0.060148537 0.19593816 0.25465882 0.1449871 -0.7080624 0.25628862 -0.5892385 -0.6899563
-0.46022564 0.38686654 -0.49298328 -0.43061382 -0.31577462 -0.30030414 0.12605593 -0.12683724
-0.18392628 0.6066774 0.07179683 -0.12767956 0.1867232 -0.2531834 0.4366734 0.3487761
-0.6720562 0.024853077 0.14748624 1.4241856 0.2152183 0.07966826 0.32190195 0.18050113
-0.25603595 -0.4071898 -0.5345212 1.3543396 0.14006199 -0.05771981 -0.42479414 0.4696867
0.34969455 -1.2365314 0.21920417 -0.147528 -0.7939866 -0.38420805 -0.7177402 0.38126838
1.2430576 -0.4072493 -0.08936165 0.12053475 -0.42407686 -0.099129796 -0.20401432 0.77214867
0.12047724 0.0014262275 -1.1955419 0.20729534 -0.06522672 -0.4743636 -0.11991123 -1.3193709
0.12812847 -0.03115091 0.5025036 -0.38086176 0.4537475 0.18029094 -0.5946135 -0.60825473
0.101538435 -0.003078469 -1.0237752 0.54576796 0.26929864 -0.1950043 -0.08745881 -0.1445156
-0.685031 0.083447255 0.49320263 -0.11019305 0.023230955 -0.37952513 0.5450247 -1.0423474
-0.40091184 -0.3670999 0.35043335 0.4168897 0.31670612 0.109062366 0.58576506 -0.8503351
0.002006606 0.31455395 0.32124272 -0.4005837 -0.05449912 0.61579806 -0.5335878 0.10551796
-0.28199613 0.53683543 0.35364538 0.32689214 0.15101059 0.103736766 -0.25951606 0.028432846
0.19126703 0.43364882 0.24494816 0.1843182 -0.13125625 -0.12509367 -0.19654827 0.25994462
0.55530375 -0.29502967 -0.048522733 -0.4764041 -0.16202289 0.057368245 0.75244075 0.17546843
-0.4793891 -0.09484753 0.17598219 -0.41777295 -0.026314493 0.21721959 0.10415066 -0.17707714
0.09302624 -0.0024667985 0.1260371 0.4987269 -0.18904237 -0.37935987 0.38298297 -0.28694898
0.7808717 -0.27425233 0.0025726054 0.17601787 0.40025187 0.11673159 0.5644021 -0.47096753
00000000: 326c 593d d2ad 8fbc b232 1a3f d933 16bf
00000010: 75e9 333e 9a17 e63d 3966 e73e 0bdd 0a3f
00000020: 5307 bf3d 5060 783e dd23 543d 71c0 3bbf
00000030: 5cc5 2fbc f73d 653e 6fa0 b13e 3dd1 27bf
00000040: 7174 0d3f 8af4 ec3e 5557 353f 918e cd3d
00000050: c54c 803e d39f 42be ebf7 8abe e181 9b3e
00000060: 1703 9cbe 99f4 54be afcf b23e 5df2 603d
00000070: 71e3 b2be 74fe 48bf c050 eb3e e9d2 f3be
00000080: e379 d6bd b5eb 233f 8a2c 503e ea40 96bd
00000090: 33b9 033f e8f7 9bbe f863 973c 380e 87be
000000a0: da49 863c 5165 fe3e 2129 44bf c444 003f
000000b0: 670e 963d 1cfb e73c e1c9 2abe 6eba 87bf
000000c0: edb5 28bf 5664 cdbe 3ba2 d4be 02e8 80bf
000000d0: e74f c13c a406 0fbf daca 1cbf c046 3d3f
000000e0: 87cb 873e b2bd 2fbf 8947 ed3d 8797 063e
000000f0: 652e 083f eb75 13bd 2343 c8be 5e56 e83e
00000100: 2fc1 8abf 4a40 e23d 0088 34bf fb4e 6a3f
00000110: 6875 c03d 2587 aabe 92ea aebc cf6b ddbe
00000120: 4302 973c 41ea 1bbe 83f3 37be 861d 16be
00000130: 9bb6 023f ce93 603f afc3 c23e 8cc9 88bf
00000140: 261b 28bb 2224 1abf d615 403e ec83 56be
00000150: 92cb 1dbe b116 1bbf b0eb 1dbc f470 b2be
00000160: d5fe 773f e2c8 a3be 6a1d 0c3e ae2e 2d3d
00000170: c3cf 0f3f 2181 11bf 3b5f 6ebf 9532 45bf
00000180: 237c e3bb 67a7 463e 5362 3ebb aa45 c83e
00000190: 0b94 de3d 0008 fa3d 5737 72be 3c7e 033e
000001a0: 505e 763d 03a4 483e a462 823e 8077 143e
000001b0: 9443 35bf 4338 833e 56d8 16bf faa0 30bf
000001c0: b2a2 ebbe 5f13 c63e 4e68 fcbe 6a79 dcbe
000001d0: 36ad a1be 77c1 99be ce14 013e 9fe1 01be
000001e0: 2c57 3cbe 364f 1b3f 370a 933d 6ebe 02be
000001f0: 5e34 3f3e 41a1 81be a893 df3e c892 b23e
00000200: e00b 2cbf ae98 cb3c a206 173e b74b b63f
00000210: 3062 5c3e 1d29 a33d 55d0 a43e 4ad5 383e
00000220: 2517 83be 2e7b d0be 62d6 08bf 005b ad3f
00000230: 696c 0f3e 9c6b 6cbd 9e7e d9be c67a f03e
00000240: 2a0b b33e a946 9ebf 0f77 603e 9411 17be
00000250: b542 4bbf ebb6 c4be d2bd 37bf 9c35 c33e
00000260: 831c 9f3f fb82 d0be 3e03 b7bd ecda f63d
00000270: 9a20 d9be 9004 cbbd 21e9 50be 89ab 453f
00000280: c5bc f63d 41f0 ba3a 8407 99bf 3b45 543e
00000290: 9695 85bd c9df f2be 0594 f5bd 25e1 a8bf
000002a0: 1c34 033e 3130 ffbc 13a4 003f 5000 c3be
000002b0: 9851 e83e 309e 383e 9738 18bf 95b6 1bbf
000002c0: 62f3 cf3d 24c0 49bb 110b 83bf 73b7 0b3f
000002d0: 83e1 893e 35af 47be 9b1d b3bd e6fb 13be
000002e0: 315e 2fbf 65e6 aa3d 0e85 fc3e e5ac e1bd
000002f0: d84e be3c 1e51 c2be bd86 0b3f a46b 85bf
00000300: 5144 cdbe 85f4 bbbe 006c b33e 9172 d53e
00000310: 4e27 a23e 175c df3d b3f4 153f 90af 59bf
00000320: 4381 033b 370d a13e ed79 a43e 4f19 cdbe
00000330: 783a 5fbd f1a4 1d3f 3699 08bf cd19 d83d
00000340: cc61 90be 0c6e 093f 0211 b53e 685e a73e
00000350: 85a2 1a3e f173 d43d 4adf 84be 00ec e83c
00000360: 81db 433e 3807 de3e b1d3 7a3e e9bd 3c3e
00000370: 0a68 06be 8e18 00be f343 49be 7617 853e
00000380: 6328 0e3f 210e 97be c6bf 46bd 3deb f3be
00000390: 54e9 25be f7fa 6a3d f59f 403f ffad 333e
000003a0: 7d72 f5be 6c3f c2bd ad34 343e 56e6 d5be
000003b0: 7e91 d7bc d06e 5e3e f14c d53d b653 35be
000003c0: 8b84 be3d 03aa 21bb df0f 013e 2259 ff3e
000003d0: 5394 41be 753b c2be 5816 c43e faea 92be
000003e0: 35e7 473f cd6a 8cbe 2899 283b 073e 343e
000003f0: d0ed cc3e f910 ef3d a87c 103f a822 f1be

lstm.weight_hh_l1 f4 [256, 64]
0.3454971 -0.27726018 -0.5016339 0.4296544 0.22396836 -0.42054668 -0.4150111 -0.51134574
0.5989735 1.2076156 -0.1726358 0.04112259 -1.1873568 -0.49769437 -0.28069276 0.6157285
-1.054343 0.5471186 -0.42174768 0.015181464 0.08295601 0.0270636 0.73530525 0.5291716
-0.57042104 0.10530131 1.4172184 0.16338986 0.21740888 -0.2856454 -0.7400665 0.7763016
-0.4076856 0.53236586 0.29922533 -0.14205113 -0.39224866 -0.25245178 0.095687434 0.44488436
-0.45956472 0.58509606 -0.7787536 0.9206182 0.29211697 -0.7625866 -0.33960643 -0.54546005
1.5716752 -0.43543404 -0.26323193 -0.16831948 -0.31092945 -0.42884564 0.27162066 0.5717064
0.5078654 0.07883165 -0.4066869 -0.7023195 -0.5716851 0.32657632 -0.762057 -0.041801002
-0.38066462 0.75604177 0.48783976 -0.2624689 -0.7603803 0.47259092 0.20860401 -0.31035027
0.1329391 -0.16338229 -0.42609924 0.58891314 0.34521833 0.26497573 -0.5159036 -0.7111082
0.51559156 -0.30686677 0.7196716 0.6769162 -0.41447115 -0.48929253 0.48524305 -0.03489312
-0.053760912 -0.42981791 -0.3448133 -0.19067466 0.54968524 0.4912933 0.15249154 -0.32795346
0.43432176 -0.07592452 0.7017584 -0.38437742 0.32172635 -0.23568803 0.4403066 0.60145235
0.5007823 -0.16263409 0.3004411 0.4432322 -0.57718086 0.058068264 1.258815 0.10963146
-0.56883514 0.13969062 0.13607833 -0.53705263 -0.17885405 1.0506577 -0.24344857 0.29033172
-0.1820388 0.17322548 0.47216213 -0.6939128 0.14205952 -0.94916826 -0.13044927 -0.20670795
-0.1268931 0.25887066 -0.16665831 0.93585217 0.2186573 0.018260708 -0.0005924281 0.5371878
-0.1423487 -0.1608866 -0.4538996 0.03940091 0.013670116 0.27481627 0.1398712 0.54388195
-0.08979367 0.6091765 0.33641458 -0.34537965 -0.37927684 0.23382626 -0.120408654 0.11748446
0.06498678 -0.047444507 0.10651305 0.07086113 0.7222137 -0.24258804 -0.43552744 0.044147864
-0.16267547 0.74860185 0.42883354 -0.0022801242 1.1021895 0.45350605 -0.293389 -0.7821516
-0.019914184 0.037184075 -0.19537537 0.12234211 0.2507508 -0.24935949 -0.17371437 -0.38897872
0.06155298 -0.18806493 0.43663436 -0.93646383 0.12594722 0.49681538 0.28523406 0.19106096
-0.5936872 -1.4116341 -0.37080464 -0.4802255 -0.34465474 -0.092570834 0.5450576 0.6733472
-0.3853816 -0.8639595 0.24835923 -0.30210465 -0.4946967 -0.42095938 -0.459456 0.45065746
0.12841184 -0.88989705 0.49471235 0.23925385 0.34749496 0.17398013 0.3581358 0.92620826
0.56652164 0.5611187 -0.8093695 -0.53321195 -0.49235547 0.5878139 0.14640103 0.31794065
-0.23477817 0.22061217 -0.5148035 -0.30536422 0.41150704 0.091488086 -0.36211818 0.39985612
-0.28240028 0.23358628 0.18136376 -0.061966266 0.60458255 0.26500255 -0.94348705 -0.33953083
-0.65032226 -0.71938 0.4058195 -0.4499376 0.31806073 -0.35941648 -0.3011919 -0.8302706
-0.31547672 -0.24633084 0.4044484 0.316578 -0.14135411 0.40605673 -0.36802405 -0.123499885
-0.4207358 -0.023709355 -0.5838134 0.2808689 1.0984458 0.34688458 0.28337345 0.20139995
00000000: ffe4 b03e 0cf5 8dbe 146b 00bf a9fb db3e
00000010: f657 653e e551 d7be 567c d4be 8ee7 02bf
00000020: 5456 193f 2693 9a3f 70c7 30be 2970 283d
00000030: 4ffb 97bf ccd1 febe f6b6 8fbe 62a0 1d3f
00000040: b6f4 86bf f70f 0c3f 50ef d7be adbb 783c
00000050: d7e4 a93d 7cb4 dd3c f73c 3c3f ca77 073f
00000060: 1d07 12bf 37a8 d73d 6a67 b53f ac4f 273e
00000070: 6fa0 5e3e 1d40 92be 0075 3dbf b4bb 463f
00000080: 2bbc d0be 2149 083f 1034 993e da75 11be
00000090: d1d4 c8be 5c41 81be c6f7 c33d e2c7 e33e
000000a0: 114c ebbe dbc8 153f 655c 47bf a2ad 6b3f
000000b0: 5b90 953e e038 43bf e5e0 adbe 45a3 0bbf
000000c0: a72c c93f 36f1 debe 56c6 86be f15b 2cbe
000000d0: 2532 9fbe a891 dbbe dd11 8b3e 5a5b 123f
000000e0: 7803 023f 7d72 a13d 4439 d0be 36cb 33bf
000000f0: f459 12bf 0335 a73e 2b16 43bf 8737 2bbd
00000100: 79e6 c2be f48b 413f 22c6 f93e 5362 86be
00000110: 49a8 42bf 70f7 f13e 4a9c 553e 3be6 9ebe
00000120: 3021 083e b04d 27be ae29 dabe 03c3 163f
00000130: 75c0 b03e e6aa 873e 4212 04bf 300b 36bf
00000140: cffd 033f a41d 9dbe 663c 383f 614a 2d3f
00000150: 9035 d4be 8d84 fabe c771 f83e 17ec 0ebd
00000160: 6734 5cbd 1811 dcbe 5e8b b0be 3840 43be
00000170: 2cb8 0c3f cc8a fb3e be26 1c3e 84e9 a7be
00000180: 6c5f de3e 517e 9bbd 70a6 333f 1ecd c4be
00000190: 51b9 a43e 3458 71be de6f e13e c8f8 193f
000001a0: 4533 003f 8d89 26be 6ad3 993e 55ef e23e
000001b0: 20c2 13bf fdd8 6d3d da20 a13f 7586 e03d
000001c0: 2e9f 11bf 0f0b 0f3e 1e58 0b3e 487c 09bf
000001d0: 8425 37be f47b 863f 954a 79be 5ca6 943e
000001e0: 6168 3abe 0562 313e 3cbf f13e 45a4 31bf
000001f0: 0d78 113e b1fc 72bf 7e94 05be 40ab 53be
00000200: 44f0 01be b28a 843e 7aa8 2abe 0294 6f3f
00000210: b3e7 5f3e 7b97 953c 2d4d 1bba 2485 093f
00000220: dcc3 11be 75bf 24be 8765 e8be d962 213d
00000230: 9ff8 5f3c b8b4 8c3e 653a 0f3e d93b 0b3f
00000240: bee5 b7bd fef2 1b3f 883e ac3e 9ad5 b0be
00000250: 9330 c2be 2770 6f3e d098 f6bd b19b f03d
00000260: ca17 853d 2c55 42bd 8423 da3d a41f 913d
00000270: ffe2 383f 0069 78be 74fd debe 64d4 343d
00000280: 6694 26be 5fa4 3f3f 1290 db3e 236e 15bb
00000290: 8c14 8d3f f231 e83e 1537 96be 163b 48bf
000002a0: 1223 a3bc 544e 183d 7b10 48be 808e fa3d
000002b0: 6962 803e 1858 7fbe 2ee2 31be 3828 c7be
000002c0: fa1e 7c3d 1894 40be 8a8e df3e 18bc 6fbf
000002d0: 4ff8 003e 965e fe3e 330a 923e 7ca5 433e
000002e0: e2fb 17bf 6db0 b4bf 1bda bdbe 1ee0 f5be
000002f0: 9676 b0be c795 bdbd e588 0b3f 7b60 2c3f
00000300: bd50 c5be 732c 5dbf e251 7e3e 76ad 9abe
00000310: e348 fdbe fd87 d7be d13d ebbe 93bc e63e
00000320: 657e 033e 4bd0 63bf f04a fd3e f6fe 743e
00000330: dcea b13e d927 323e 935d b73e fc1b 6d3f
00000340: 9007 113f 7aa5 0f3f d732 4fbf 9480 08bf
00000350: 0416 fcbe f97a 163f 27ea 153e 1ec9 a23e
00000360: b069 70be 28e8 613e 2aca 03bf b358 9cbe
00000370: 0db1 d23e 1b5e bb3d 8e67 b9be f1b9 cc3e
00000380: c596 90be 3e31 6f3e 6cb7 393e 57d0 7dbd
00000390: ecc5 1a3f 6aae 873e 5e88 71bf fcd6 adbe
000003a0: 857b 26bf 4a29 38bf 93c7 cf3e 395e e6be
000003b0: dbd8 a23e 7005 b8be d335 9abe 9d8c 54bf
000003c0: 2a86 a1be 273e 7cbe dc13 cf3e 8316 a23e
000003d0: 22bf 10be abe6 cf3e a66d bcbe 82ed fcbd
000003e0: af6a d7be 1f3a c2bc cc74 15bf 0cce 8f3e
000003f0: df99 8c3f db9a b13e 5316 913e ca3b 4e3e

lstm.bias_ih_l1 f4 [256]
0.508769 0.50798595 0.29771245 0.111166514 0.112929195 0.0049508642 0.28769302 0.3256583
-0.20012216 0.18941024 -0.103093825 -0.3025311 -0.15170951 0.13561998 0.008316498 0.39049953
0.3628713 0.55168515 0.06795029 0.4490433 0.15626855 0.04900057 -0.21283886 -0.46677956
-0.2558986 0.4133565 -0.18891826 -0.11183811 0.0871765 1.1915232 0.3664474 0.56262094
0.1280178 0.57594824 0.5043889 -0.059289508 -0.3628299 0.04107081 0.7605446 0.49487638
-0.113829456 -0.50287265 -0.25626373 -0.45117122 -0.17643149 0.36357594 -0.25423637 -0.14745891
-0.051959682 0.024246264 -0.04247177 0.20101129 0.106963195 0.32447675 0.07493531 0.049368363
-0.110167585 0.20878589 0.041330907 0.31529734 0.24868393 0.6262012 -0.24751273 -0.08258898
-0.26201367 0.011252857 0.24062419 0.22184555 0.30368996 -0.18810423 0.28963813 -0.19921948
0.3852022 0.23264922 0.4088769 -0.3433053 0.054114792 0.035274368 0.6256971 -0.29571223
-0.23395905 -0.071353376 0.046893425 0.06811576 0.073128715 0.3140941 -0.0044567618 0.64370334
0.08814544 0.2719449 0.4143218 -0.17226064 0.12768501 0.5986918 0.05370045 0.12536274
0.17519458 -0.107508175 0.30660582 0.2004361 0.4882193 -0.2025636 -0.07826083 0.18066752
-0.37164417 0.089176044 0.32590592 0.24536678 0.017861411 0.015383992 -0.07616695 0.10209883
0.5033208 -0.49565583 0.23426346 0.20208605 0.21488532 0.24960497 0.22295769 -0.18208927
0.49388582 -0.061736777 0.55246466 -0.009321429 0.05351537 0.2497289 0.117219925 0.45854953
0.25292623 -0.019705055 0.25509998 0.09771515 0.1878683 0.25432366 -0.87868524 0.17122129
0.045464117 0.4572954 -0.0030642934 -0.38864526 0.3121179 -0.11592161 -0.12970778 0.26511678
-0.22806042 -0.39638212 -0.52498055 0.16324805 -0.5926544 0.26791143 0.3632411 -0.16324744
-0.4708 0.47496927 0.051461946 0.48002848 0.4217567 -0.5579517 -0.0044305352 0.030434713
0.5126972 0.08098958 0.34972486 0.19605568 0.31486002 0.57364124 0.102519356 -0.040140994
-0.17266661 -0.101086065 0.14645793 -0.094606414 -0.055099454 -0.4465493 0.34784266 -0.406989
0.32327354 0.09138725 0.49579123 -0.34386545 -0.69523495 0.06388749 -0.85632133 -0.19303933
-0.017088694 -0.058919154 0.49874645 -0.2635755 -0.32486755 0.09740625 -0.02748609 -0.069203876
1.8386151 0.01012863 0.20906065 0.6454041 0.13498673 0.6479158 -0.19162154 0.18382978
0.0051143854 -0.28169745 0.64041823 -0.07883024 0.34488535 0.13951598 0.2446931 0.26517513
0.36481062 0.12564918 -0.18762882 0.06481013 0.2633022 0.33313143 -0.058830842 -0.056939565
-0.3776081 0.43440744 -0.1553152 -0.021788113 0.12643418 0.020047605 -0.079859145 0.9163089
0.28457704 -0.3332411 0.18466294 0.07047008 -0.029543767 0.45192716 0.27409664 -0.082632765
0.63822806 -0.20425105 0.38388175 0.082729705 0.417799 0.27152166 -0.26924187 0.0707579
0.23020095 0.6469126 -0.21950656 -0.057802077 -0.24142723 0.46348462 0.1893088 0.43047935
0.8532881 0.22414799 -0.20856482 0.44312963 0.20521216 -0.2843247 -0.112068504 -0.2512006
00000000: af3e 023f 5e0b 023f c46d 983e 45ab e33d
00000010: 6c47 e73d dc3a a23b 804c 933e afbc a63e
00000020: d3ec 4cbe c2f4 413e db22 d3bd 5be5 9abe
00000030: bd59 1bbe f7df 0a3e ec41 083c 8eef c73e
00000040: 44ca b93e 3d3b 0d3f 8629 8b3d 01e9 e53e
00000050: dd04 203e d2b4 483d 6ef2 59be bbfd eebe
00000060: 2405 83be 77a3 d33e ca73 41be 610b e5bd
00000070: 9889 b23d d583 983f fe9e bb3e ed07 103f
00000080: 1917 033e 5871 133f a21f 013f 8ed9 72bd
00000090: d7c4 b9be de39 283d 0db3 423f 7060 fd3e
000000a0: 6b1f e9bd 43bc 00bf 0035 83be eaff e6be
000000b0: 75aa 34be a026 ba3e 452b 82be 78ff 16be
000000c0: add3 54bd 1aa0 c63c e1f6 2dbd e7d5 4d3e
000000d0: 850f db3d d121 a63e af77 993d 7b36 4a3d
000000e0: 8b9f e1bd f8cb 553e 994a 293d a76e a13e
000000f0: 00a7 7e3e b94e 203f fa73 7dbe 6924 a9bd
00000100: a826 86be e75d 383c 3066 763e 7b2b 633e
00000110: 407d 9b3e 659e 40be 734b 943e 3100 4cbe
00000120: 3939 c53e 993b 6e3e 5058 d13e b6c5 afbe
00000130: 79a7 5d3d db7b 103d af2d 203f 9867 97be
00000140: f692 6fbe b821 92bd 5213 403d 4780 8b3d
00000150: 82c4 953d f1d0 a03e 070a 92bb bec9 243f
00000160: 9985 b43d 5d3c 8b3e fd21 d43e 1865 30be
00000170: dcbf 023e de43 193f 01f5 5b3d 175f 003e
00000180: 3566 333e 3f2d dcbd 70fb 9c3e 1f3f 4d3e
00000190: e1f7 f93e d56c 4fbe 3747 a0bd e800 393e
000001a0: 2548 bebe eea1 b63d 24dd a63e 6e41 7b3e
000001b0: 1852 923c 240d 7c3c 6bfd 9bbd 3119 d13d
000001c0: a2d9 003f 9ac6 fdbe c3e2 6f3e a5ef 4e3e
000001d0: e60a 5c3e 7298 7f3e 054f 643e 9c75 3abe
000001e0: 9ade fc3e b4df 7cbd 536e 0d3f e8b8 18bc
000001f0: ef32 5b3d efb8 7f3e 0011 f03d 01c7 ea3e
00000200: 8c7f 813e 7f6c a1bc 779c 823e e11e c83d
00000210: 8c60 403e b636 823e 84f1 60bf a254 2f3e
00000220: 9538 3a3d 9f22 ea3e 50d2 48bb 83fc c6be
00000230: ebcd 9f3e 4f68 edbd 1ed2 04be 63bd 873e
00000240: ac88 69be 99f2 cabe 2065 06bf 7f2a 273e
00000250: 33b8 17bf b02b 893e bdfa b93e 562a 27be
00000260: b30c f1be 2c2f f33e c3c9 523d 4bc6 f53e
00000270: 7ff0 d73e ecd5 0ebf 062e 91bb 3852 f93c
00000280: 2040 033f dddd a53d 230f b33e d2c2 483e
00000290: 5535 a13e 27da 123f abf5 d13d e26a 24bd
000002a0: 84cf 30be 3606 cfbd 11f9 153e 02c1 c1bd
000002b0: f7af 61bd 1ca2 e4be 6f18 b23e dd60 d0be
000002c0: 1c84 a53e 3d29 bb3d 59d8 fd3e 220f b0be
000002d0: ebfa 31bf 72d7 823d e037 5bbf 1aac 45be
000002e0: 97fd 8bbc 3655 71bd b25b ff3e 5ef3 86be
000002f0: 0a55 a6be ee7c c73d 822a e1bc c3ba 8dbd
00000300: bd57 eb3f 8ef2 253c ff13 563e 3439 253f
00000310: f639 0a3e cfdd 253f 7038 44be e03d 3c3e
00000320: 9396 a73b a63a 90be 73f2 233f c071 a1bd
00000330: d094 b03e 47dd 0e3e d490 7a3e 09c5 873e
00000340: 75c8 ba3e 2eaa 003e c521 40be 2cbb 843d
00000350: 8ccf 863e 3490 aa3e 9cf8 70bd 7639 69bd
00000360: d955 c1be a76a de3e f30a 1fbe fc7c b2bc
00000370: f677 013e e03a a43c 318d a3bd 3893 6a3f
00000380: 15b4 913e 949e aabe 4818 3d3e 9e52 903d
00000390: c505 f2bc ff62 e73e 6556 8c3e 5e3b a9bd
000003a0: ea62 233f 3027 51be 268c c43e 316e a93d
000003b0: c0e9 d53e e304 8b3e 12da 89be 85e9 903d
000003c0: ccb9 6b3e 109c 253f 54c6 60be dfc1 6cbd
000003d0: b338 77be db4d ed3e 2bda 413e ca67 dc3e
000003e0: 1771 5a3f 0d87 653e 0492 55be e3e1 e23e
000003f0: 2323 523e 0293 91be 2c84 e5bd 5d9d 80be
