models/deeplog_value_model.pt (torch, 72101 bytes, 5 tensors)

lstm.weight_ih_l0 f4 [256, 1]
00000000: 8887 873e 6fc3 ac3f 406f c13e 79ab 49bd
00000010: 3990 25be 9146 acbf 7fad c23e a590 333f
00000020: 6b06 3cbf 39ec 89bf 4ac1 e53f e692 9f3e
00000030: a541 acbe a610 65be 5386 383f 0351 7abf
00000040: d01b 223f ccd9 f93e 2057 003e bcc5 fe3e
00000050: 6af0 9b3f 12af f93e 23c7 2f3e 4880 1b3f
00000060: 2738 53be 11ef 273f 2aee 203f 1221 8b3e
00000070: 5edd 87be 7852 803d bad6 a2c0 cc90 9e3e
00000080: bf2f 103f 62e8 443f ada1 f83e 5067 fa3f
00000090: 7ecd 2e3d 24b7 103f d3b1 51bf 5693 1ebf
000000a0: 6b17 f7be 8da5 023f 496f 893e f412 e73e
000000b0: 892b 153f 46c6 133f 00a9 3e3f 7cf8 a23e
000000c0: b3f4 bd3f 0f3d 1c3e 1fd4 cc3e 2dac c1be
000000d0: 7bf1 a03e 58f6 b23e 625c 833f 2202 493f
000000e0: 7aa0 e1be 6a9f 35bd 8b30 68be 0de7 5c3f
000000f0: a2f0 c23f 42ad 563f cfb9 dbbf 451a adbd
00000100: 3bf0 3e3f c6e8 4a3f c005 16be 5aa6 0d3e
00000110: 2668 a7be c6d7 b6bf 15c7 6fbf 9390 8cbf
00000120: 7851 9ebd 7298 7d40 6e10 9e40 6542 823e
00000130: d85a 973f ffe0 3740 fc68 663e e2df 96be
00000140: c19c 4940 5c5e 81be a14c e93d b0a1 af3e
00000150: 3d6d 92be fded 26bf 23b3 71bf 16a6 f23e
00000160: e020 d7be deb2 c63e 5035 56bf 726a 0ebf
00000170: 4998 53bf fe20 5fbf 11b0 a0bf decd d2be
00000180: f2bb ea3d 8cd3 d9bf 93da b9be 9d92 4abf
00000190: aebc 863f 80ae b73f 2895 943f 1704 3740
000001a0: 795e eebe 1bcc 5840 cf12 9fbf 2536 70bf
000001b0: bbfc 3fbf 29e1 1240 4ab5 c0bf bd14 8cbd
000001c0: a6c5 b83f 9dd6 bfbd 43c8 4a40 836f 1b3f
000001d0: 1269 833f 0121 8abe baf2 5340 9d2d 6640
000001e0: aaa9 e73d e2c4 2cbf 7023 c8be a739 bebe
000001f0: 0e38 04bf 113b 5abf bf57 623e 0c0e 5240
00000200: 7965 173f ce71 6d3f bd1d 863f 449d 58b8
00000210: 5d87 94be 1475 0c3f 78e8 fcbe 1a0c 1d3f
00000220: b83e 18be 680f e7bf f6cc 98bf 754e e7be
00000230: 1389 8fbf 80a1 803f faed 8ebf 6cf6 5ebf
00000240: 3f66 c13f 29ff 06bd 7f57 ce3e c318 b3be
00000250: a64f c4be 6c93 04bf 1053 313f d2eb 133f
00000260: 2d1b f43e 5c4a 02bf 7953 d6be ab17 2d3f
00000270: a32c 1d3f 9044 f13e fb49 29c0 21ed d93e
00000280: d151 02be 5b78 123f 0b5d c8be 9abb c53f
00000290: b6af 713f 69e0 ecbf c227 3d3f 4546 413f
000002a0: 8ac8 24be 29a8 d0bf f44d 653f 59f5 c13e
000002b0: 5d91 803e 7443 813f ee32 fa3e 0bb2 9f3d
000002c0: f4bc e0bf 28ca 313f d2b2 35bf 84ad 02bf
000002d0: f227 12bf ca3f 953e 302e b03f 2c54 f73f
000002e0: 326d 8abf 3e81 873c 69cc cfbd d369 0f3f
000002f0: 1d86 ec3e 37cb 2abf 9362 693e 9e9c eabf
00000300: f834 81bf e001 ba3e a480 e0be 0122 5fbf
00000310: 7e17 1cbf 8fb9 aa3e 3287 dc3d 908a 053e
00000320: 17e4 cdbf 626e a1be 1024 8cbe 36d5 08bf
00000330: d61b dd3e 3c46 34bf ced5 953f 1afc 52bf
00000340: cfe9 69bf 3ac3 18bf d9db fbbe b52a e63d
00000350: d52e 1c40 528a df40 3f05 053f f78f 753f
00000360: 3a7e 39be 5a18 02bf 163a 1a3f 06df e83e
00000370: c5d6 4f3f 941f b53f b8d6 6cbf 00fb d93e
00000380: 7d4c 123f e6c1 7a3f 10be b73d e185 8940
00000390: c1d1 e9bd 7ee7 8fbf da32 27bf 4c34 02bf
000003a0: 13bd 11bf 42d2 a93d 3854 1f3f 066e 1e3e
000003b0: edae 1b3f c7ab c5bf 4e8f 943f bd08 9d3e
000003c0: 965e 9d3f 4aaf b0bd 18e5 bf3f ca4a 733e
000003d0: ac79 3dbe d04b e9bc f7bd 3ebf 01c6 d13e
000003e0: 6c26 3a3f cf7a d43e 50a3 233f 26f4 0c3f
000003f0: 7143 0140 8503 933f 19f5 7fbd 7fc3 8fbf
0.2647059 1.3497142 0.3778019 -0.049235795 -0.16168298 -1.3459035 0.38022992 0.70142585
-0.73447293 -1.0775214 1.7949612 0.31166762 -0.33643833 -0.22369632 0.7207996 -0.97779864
0.6332369 0.48798978 0.12533236 0.49760234 1.2182744 0.4876638 0.17165808 0.60742617
-0.20626889 0.6559916 0.6286341 0.27173668 -0.26536077 0.0626573 -5.0887117 0.30969846
0.56322855 0.7691709 0.4856085 1.9562778 0.04267644 0.5652945 -0.81911963 -0.61943567
-0.48260054 0.5103386 0.26842716 0.45131648 0.58269554 0.57724416 0.74476624 0.31830204
1.4840301 0.15257667 0.40005586 -0.37826672 0.31434235 0.3495357 1.0262568 0.7851888
-0.44067746 -0.044341482 -0.22674768 0.86290056 1.5229685 0.8385812 -1.7166079 -0.08452276
0.7458531 0.79261434 -0.14650631 0.1383299 -0.32696646 -1.4284599 -0.9366315 -1.098162
-0.07730383 3.9624295 4.9395056 0.2544128 1.1824598 2.8731077 0.22500986 -0.29467684
3.1501925 -0.25267303 0.11391569 0.34303045 -0.28598967 -0.6520689 -0.94413966 0.4739234
-0.4201727 0.3880834 -0.836751 -0.5563117 -0.82654244 -0.8715972 -1.2553731 -0.4117269
0.11461629 -1.7017684 -0.3629957 -0.79129964 1.052633 1.4350128 1.1608019 2.8596246
-0.46556452 3.3874576 -1.2427615 -0.9383262 -0.7499501 2.2949927 -1.5055325 -0.06839893
1.4435318 -0.09367106 3.168473 0.6071703 1.026644 -0.26978305 3.3116899 3.596534
0.11311658 -0.6748792 -0.39089537 -0.3715336 -0.5164803 -0.8524638 0.22103785 3.2821074
0.5913921 0.9275178 1.0477825 -5.1644878e-05 -0.29009524 0.5486615 -0.4939611 0.6134659
-0.14867675 -1.8051577 -1.1937549 -0.45177045 -1.1213707 1.0049286 -1.1166375 -0.8709476
1.5109328 -0.032958183 0.4030113 -0.3497983 -0.38342017 -0.5178745 0.6926737 0.5778171
0.47676983 -0.50894713 -0.4186056 0.6761424 0.61396235 0.47122622 -2.6451404 0.42563727
-0.12726523 0.572149 -0.39133486 1.5447876 0.9440874 -1.8505985 0.7388879 0.7549785
-0.16092125 -1.6301318 0.8957207 0.37882498 0.25110903 1.009871 0.4886698 0.07797631
-1.7557664 0.6944909 -0.70975983 -0.51046014 -0.570922 0.2915023 1.3764095 1.9322562
-1.0814574 0.01654112 -0.1014641 0.5602085 0.4619607 -0.6671633 0.2279151 -1.8329046
-1.009429 0.36329556 -0.43848145 -0.8716126 -0.60973346 0.33344695 0.10767974 0.13041139
-1.6085232 -0.31529528 -0.27371264 -0.53450334 0.431853 -0.7041967 1.1705873 -0.82415926
-0.9137239 -0.5967289 -0.49191168 0.112386145 2.4403584 6.985635 0.5196113 0.959228
-0.18114558 -0.5081841 0.6024488 0.45482653 0.8118709 1.4150262 -0.92515135 0.4257431
0.5714796 0.97952116 0.089717984 4.2975926 -0.114169605 -1.1242521 -0.6531197 -0.5086105
-0.5692913 0.082920566 0.6223788 0.15471658 0.6081379 -1.5443047 1.1606233 0.3067073
1.229449 -0.08627184 1.4991789 0.23758999 -0.18503445 -0.028478533 -0.74508613 0.40971377
0.7271488 0.41499946 0.6392107 0.5506004 2.0197413 1.1485449 -0.062489603 -1.1231536

lstm.weight_hh_l0 f4 [256, 64]
00000000: b83e 953e 6612 a3bd b59b 0bbe 9924 b33e
00000010: c9e6 12be 9a02 7f3f 8a46 8d3e e3e0 57be
00000020: 431f cabc d33d 43bf 10b2 073e c173 983e
00000030: 1f93 2bbd 3165 a13e fc33 85be 55d2 7e3b
00000040: 7692 553e 695f d1bd 0891 613e 9163 c83d
00000050: 638c 2dbe ef65 83bf 1692 c8be 6ab8 bc3d
00000060: efd5 ed3e 9342 b4bc 6eff a6bd 4682 8a3e
00000070: 651b b33e aec2 11bf d731 8b3d 38dd 47bf
00000080: d30b a8bd 5e52 263b 9272 14bc a7bc a2be
00000090: 49ba c9bd 66c9 12bf 1f24 3b3f 76c0 9b3c
000000a0: 2ad1 8cbe 7acb e13b 593c ffbe 3bb8 28be
000000b0: 344e 0abf 1c7c bdbd d3ba 973e 8517 c53e
000000c0: 471b 24be b611 e93e 91bc a93e 9361 f7be
000000d0: db84 93be 2c59 2a3e 9de7 fb3e 554a 263f
000000e0: 0a24 d5be 7372 b1bd c9ff 983e 2c18 c13e
000000f0: 5887 a2be e15a b1be d094 a53d a820 40bd
00000100: 1536 bf3e 3f58 263f bd68 55bf 9903 36bf
00000110: 18fb b6bf c8c9 25bf 7069 83bd d602 6f3e
00000120: 7db8 cebc 7063 86bf 755d ffbe 3a42 b2be
00000130: 762c d6be f0ca c83e 3a8d 5fbd 949d b23d
00000140: 5744 aa3e ddcd 5e3d 47cc 7fbe 87ba 5abf
00000150: 057a 873f 569e d83e 4388 87bd 9ded 2b3f
00000160: 5865 183e c69d 12bf b6d6 10bf 1dcd ea3e
00000170: 4360 6dbe cb92 993e 23c3 de3f 81f0 67be
00000180: 89f5 4c3e 857a 2b3e 282b 48bf 2dbe d43e
00000190: 39b9 a53e 0faa efbe 1942 cb3e b952 a33e
000001a0: 1484 bbbe 10be 47bf 7102 0dbd 81bf bc3c
000001b0: e4d3 4abf cad7 293e 4ab0 ee3e 1ef3 91be
000001c0: 4726 a3bd b3bc f03e 768d e2bc 5d6e 11bf
000001d0: 4266 d3be ac52 d3bd 4cc7 023f df51 b93e
000001e0: 04f3 59bf bbd3 8f3c 7710 e3be e883 0b40
000001f0: 24fc 2abf c57f 80be 9ff9 5dbe 5502 11bf
00000200: a2d4 27bf e637 07bf d3a5 4ebe 9c18 8bbd
00000210: cfb6 2abf e1ea 5a3f 1c96 8c3e 2ee8 2dbf
00000220: 4433 533f 167c 5b3e 4f3c 46bf f80f c1bc
00000230: 963d 2abf a889 36bc 19d8 89bf 5306 38be
00000240: aba3 b73e eeb5 d63e 3759 f73e 89d1 5bbe
00000250: 5cb3 e43e 5bf1 0abe 8535 23bf 3cbd 97be
00000260: 1b29 cbbe 5148 08be a5ae c33e 1915 39be
00000270: c895 663e d0ef d43d 42cb 063e 76ac bdbe
00000280: 1f1b 723e 1997 b1be bea5 24be bf62 32be
00000290: 1a52 bc3e 05dd 5a3e 7aba ef3e bf15 a1bd
000002a0: 173c e93e d7ef e4be 8935 14be 58f0 f7be
000002b0: d3d7 b1bf c797 4a3f e60f 973f f5ad b23e
000002c0: 1057 e73e 820f 833f 2f62 35be 78b3 913e
000002d0: 4aad f2be 5a1e 023f f88f a53e a710 813d
000002e0: 3bbe 99be 2d91 b4bd b882 4b3f 20bf fb3d
000002f0: e473 febe 3bac cb3e 674d 3abf 4b73 e7be
00000300: 217c 69be 6f39 75bf 8256 273e 9302 a0bd
00000310: a7e9 c0be f40d 073f d655 5e3f 3105 6bbe
00000320: a4f5 813f 1b68 0b3d de1b 30bf 42f2 99bc
00000330: 140c 06bd ef8d e6be a225 68bf 2e8e 8fbe
00000340: 74ff d23d c258 1f3f 0ea4 e73c 6981 453e
00000350: 5b45 053f a3ae 8bbd 3925 88be 5e5e 80be
00000360: 9019 11bf 577d 53bd c15b c4be 3b8b 0cbe
00000370: 42dd fb3e 38a4 91be d0cc 4ebf dc08 3ebe
00000380: 4c6e 7c3f 85bd 1abf a9df a3be 8f4f eabe
00000390: 26e7 5a3f d891 01bf f951 0a3f c1e8 96bd
000003a0: 6304 0c3f 4653 bcbd 7cdc 0dbf 42ff cebe
000003b0: 1b53 12bf 9744 683f 88d5 0abe bfe1 513f
000003c0: 1f76 e1bd 1b79 14be 91fd 353e 5aff 863e
000003d0: 612a 8c3d 9e4f ba3e 2cc0 6a3d 1312 d13e
000003e0: 236a 513e 3578 1dbf 993e 093e cc1c 6fbe
000003f0: f67b 2ebf 0b7d 3a3e 78ff 85bf 6ea4 0fbf
0.29149413 -0.079624936 -0.13633616 0.3498886 -0.1434585 0.99613345 0.2759288 -0.21081881
-0.02467311 -0.7626621 0.13251519 0.29775813 -0.041888352 0.31522515 -0.26016223 0.0038882692
0.20856652 -0.10223276 0.22027981 0.09784616 -0.16948085 -1.0265483 -0.39173955 0.09214862
0.4645228 -0.022004401 -0.08154188 0.27052516 0.34981838 -0.5693768 0.067966156 -0.7807193
-0.0820538 0.0025378685 -0.009060519 -0.31784555 -0.09849984 -0.5733856 0.7310199 0.019012671
-0.2750333 0.0068907114 -0.4985073 -0.16476528 -0.5402558 -0.092521876 0.29634723 0.38494506
-0.1602603 0.45521325 0.33151677 -0.4831663 -0.28812298 0.16635579 0.49200144 0.6495717
-0.41629058 -0.086644076 0.2988265 0.37713754 -0.31743884 -0.34639648 0.08085024 -0.046906143
0.3734595 0.649784 -0.8336294 -0.7109924 -1.4295378 -0.6476102 -0.06416595 0.23340926
-0.025234455 -1.0499096 -0.4987599 -0.34816152 -0.41830796 0.3921733 -0.054578044 0.08721462
0.33255264 0.054395545 -0.2498027 -0.8544087 1.0584112 0.423083 -0.06617787 0.67159444
0.1488241 -0.57271993 -0.5657762 0.45859614 -0.23181252 0.29994807 1.7403301 -0.22650339
0.20015539 0.16745956 -0.7819085 0.41551343 0.32367876 -0.46809432 0.39698866 0.3189905
-0.36624205 -0.7802439 -0.034426156 0.023040535 -0.7922957 0.16586223 0.46618873 -0.28505796
-0.07966285 0.47018966 -0.027655344 -0.56809026 -0.41288954 -0.10318503 0.5108535 0.36195275
-0.8513644 0.017557016 -0.443485 2.179926 -0.66790986 -0.2509748 -0.21677254 -0.56644183
-0.65558827 -0.5281967 -0.20180444 -0.06791803 -0.66685194 0.85514647 0.27458274 -0.67932403
0.825001 0.21434054 -0.77435774 -0.023567185 -0.6650022 -0.011141218 -1.0769073 -0.17971162
0.35867056 0.41935676 0.48310253 -0.2146665 0.4466809 -0.13568632 -0.6375354 -0.29636562
-0.39679798 -0.13308837 0.3821918 -0.18074454 0.22518075 0.10397303 0.13163474 -0.3704564
0.23643158 -0.3468559 -0.1607885 -0.17420481 0.3678139 0.21373375 0.46821958 -0.07865476
0.45553657 -0.44714233 -0.14473547 -0.48425555 -1.3893989 0.79137844 1.1801727 0.34898344
0.4518361 1.0239108 -0.17713235 0.28457236 -0.47397834 0.5082756 0.32336402 0.06302004
-0.30027947 -0.088167526 0.79496336 0.122923136 -0.49697793 0.3977984 -0.72774357 -0.4520515
-0.22801258 -0.9579076 0.16341594 -0.07812991 -0.37678263 0.52755666 0.86849725 -0.22951199
1.0153089 0.03403483 -0.6879252 -0.018792275 -0.032726362 -0.45030162 -0.90682423 -0.28038162
0.1030263 0.6224481 0.02827647 0.19287647 0.52058953 -0.06820419 -0.265909 -0.25071996
-0.5667963 -0.051633205 -0.38351253 -0.13724987 0.49192244 -0.284456 -0.8078127 -0.18558067
0.986058 -0.60445434 -0.32006577 -0.45763823 0.85508955 -0.50613165 0.5403133 -0.07368613
0.54694194 -0.09195571 -0.5541456 -0.4042912 -0.5715806 0.9072966 -0.13558018 0.81985086
-0.11008858 -0.14499323 0.17772509 0.26366693 0.06844021 0.36388868 0.057312176 0.40834102
0.20450644 -0.61511546 0.13402785 -0.23350829 -0.681579 0.18211763 -1.0468588 -0.56110275

lstm.bias_ih_l0 f4 [256]
00000000: c080 0bbf 9f73 94be 37c8 c13d 5ff1 e1be
00000010: 5f7f 15bf e725 5fbe 685e 9ebe 08be d1be
00000020: c683 b03e 2a91 453f 4ae5 8bbe a932 06bf
00000030: d4a4 de3e 58b8 883f f76e b6bd 94f0 253e
00000040: 2ef2 67bd c778 b9be fbd6 3dbd 7d70 b1be
00000050: 9964 fbbe eeab b3bc 88de bcbe 459a 6ebf
00000060: ee27 bdbe 3786 c4be 0ea3 3fbf 756f 85bd
00000070: 5f72 d7be 2ac4 95be 52ca 70be 7280 08bf
00000080: d3c3 e1be d8f9 8abe cfea ebbe 06cd 10be
00000090: bb38 91be a295 143e bd4b afbd 6df1 f9bd
000000a0: 3aee 6cbe 719a 163e 5e45 84be cd40 8dbe
000000b0: 1b57 85bf 4d67 12bf 3d22 79be 13b1 b3be
000000c0: beb3 15bf b748 85be 394d a1be f7d1 b6bd
000000d0: 09ad d8bc 8055 88be c378 03bc 6fbe 313f
000000e0: 7f76 82bd 4d44 15be 84b5 dcbe 3c61 13bf
000000f0: e1ec 47bf 10ee b2be b720 653f e17e e5bd
00000100: 74e1 bdbe e14b 08bf 49eb 27bf 1e81 07bf
00000110: cf54 e6be a005 98be 28ba a93e e3ce 48bf
00000120: 5eda 57be 6ce2 3dbf ada3 093e 547f 553c
00000130: e3f0 3abf c75e ddbe d1ec 25bf eedd 59bf
00000140: f8cd eebd 19fd 203d 6a7f 94bc 0e11 88be
00000150: 85c9 7abd 8fe5 28be 158c d63e ab06 c93c
00000160: 4ea4 e0be fc4e 19be 48de b83c 297f 83be
00000170: 1741 cbbe 5096 a43d 2b1f a2be e4b6 b83d
00000180: 22f7 18be 152c 883e f937 91bd 3cd7 a7bd
00000190: d1aa cabd 9f38 fbbe 6520 b8bd 38b6 b3be
000001a0: 0f35 2ebd 90d9 86be d182 f03d ec0b d33e
000001b0: 77fd 2c3e 8a18 df3c 9d19 c2be c0a6 113e
000001c0: 6103 febd 0afc a2be 2426 d1bc 4cbf 70be
000001d0: 7bdb 2ebf 6ff6 da3d 9fea eabd eed4 63be
000001e0: 4937 cdbe 3a1e 6dbf f1f0 98be 6f23 96be
000001f0: c501 c0be 3292 9d3e fc3c 5ebf a4ed 46be
00000200: 2a56 693d ef75 033e b341 2b3e e9c5 903d
00000210: a097 87bc e02d 5bbd a6c8 683c 4cbe 7b3d
00000220: 4f79 6e3d bb9e 2cbe 67d7 14be d54d 17be
00000230: 16e8 45be 3114 503e e9ec e9bd e985 96bd
00000240: b30d 673e 3c6c 633d 9ffa 153e 2d71 f5bd
00000250: 877c 643e f072 9ebd 5d88 abbd 8fbf acbd
00000260: 58cf 7a3c 15d6 09be b247 e53d 0656 623d
00000270: 9bea b23d dd98 9c3d b583 c0be cf78 9e3d
00000280: 55fb eb3b 941a 4dbc 6486 3f3c d2bd 923b
00000290: 3f31 aa3d ca39 1fbe bbc5 263e 7714 473e
000002a0: f248 953d 9bbe 8dbe b8b8 883d 7b9f f7bb
000002b0: 3a01 7dbd f527 153e 50ce 9b3d e4f8 b93d
000002c0: e6ca b3bd 26c7 2a3e bff4 5cbd a4aa 5ebd
000002d0: 44a1 15be 54f6 ea3d a601 ae3d 38e0 123e
000002e0: 61b8 bcbd 1320 a43c 095b e0bb 70f4 a3bc
000002f0: 23c8 b2bd a88a 8a3d 9c26 bf3d 0102 4dbe
00000300: 2054 eabe cd9e 39be 1d84 053e bfa2 233c
00000310: 2ffc 8ebe 4097 1cbe 3900 453c 4be7 15bf
00000320: f395 0dbe 5c39 643f 1312 49be 68ad aabe
00000330: 3100 0a3f aa53 3e3f 11fa b13e 069d bd3e
00000340: e712 2f3e 7dd4 463d abb8 62bd 0547 40be
00000350: f65e 82bf 380d debd 7be2 abbe 433d 1cbf
00000360: ecc2 c4be 6cae e8be ed02 dabe fbb3 0cbe
00000370: dde9 12bf a703 91be 3d3d d6be 685c 32bf
00000380: 68ce a6be 1a1e 95be df89 a8be 0eba 99be
00000390: f506 81bd f430 c03e a8b5 08bd 7d6a a9be
000003a0: e721 d5be 2af7 a8bd 18ec 9dbd 2ec1 52bc
000003b0: 59dd 37bf 7670 1ebe e785 053c 26af bbbd
000003c0: f259 cabe d905 60bd 9101 0ebe cf13 923d
000003d0: 2969 0e3d 4906 89bd eb77 3fbe 7c37 733f
000003e0: 0843 82bd 5547 953b 7c6b a6be 1818 17bf
000003f0: e08b 16bf 2a76 93be 8331 233f 4156 71be
-0.5449333 -0.28994462 0.09462016 -0.44129464 -0.5839748 -0.21791802 -0.309314 -0.40965295
0.34475535 0.7717463 -0.2732337 -0.5242105 0.4348513 1.0681257 -0.089078836 0.16205055
-0.056627445 -0.36224958 -0.0463476 -0.34656134 -0.49100187 -0.021932568 -0.36888528 -0.93204147
-0.36944526 -0.38383648 -0.74858177 -0.06515399 -0.42079446 -0.29251224 -0.23514679 -0.5332099
-0.44094715 -0.2714374 -0.46077582 -0.1414071 -0.28363594 0.14510205 -0.08559368 -0.122042514
-0.23137751 0.14707352 -0.25834173 -0.27588502 -1.0417207 -0.57188874 -0.24329467 -0.35096034
-0.5847739 -0.2603204 -0.3150423 -0.08926766 -0.026449697 -0.2662773 -0.008024397 0.69431204
-0.063702576 -0.14576836 -0.43107235 -0.5757024 -0.78095824 -0.34947252 0.89503044 -0.11205841
-0.3708607 -0.5324078 -0.6559339 -0.5293139 -0.4498658 -0.29691792 0.33149838 -0.78440684
-0.21079394 -0.7417362 0.13441344 0.013030846 -0.73023814 -0.43236372 -0.6481448 -0.8510426
-0.11660379 0.039303873 -0.018127162 -0.26575512 -0.06122734 -0.1649382 0.4190375 0.024539312
-0.43875355 -0.14971536 0.02256693 -0.25682953 -0.39698097 0.08036482 -0.31664404 0.090192586
-0.14938024 0.26596132 -0.07090754 -0.081953496 -0.09895862 -0.49066636 -0.08990554 -0.3509996
-0.04253107 -0.26337862 0.11743701 0.41220033 0.16893564 0.02723338 -0.37910166 0.14223766
-0.12402988 -0.31832916 -0.025530882 -0.23510474 -0.6830365 0.10691535 -0.11470532 -0.22249195
-0.40081242 -0.9262425 -0.29871324 -0.2932391 -0.3750135 0.307756 -0.86811805 -0.1942659
0.056966938 0.12837957 0.16724281 0.07068998 -0.016551793 -0.053510547 0.014207995 0.061460778
0.058221158 -0.16857426 -0.14535294 -0.14775784 -0.19326815 0.20320202 -0.1142214 -0.0734976
0.2256382 0.055523142 0.14646386 -0.11984477 0.22313128 -0.07736766 -0.083756186 -0.084349744
0.015308224 -0.13460572 0.111953154 0.05525782 0.08736154 0.07646344 -0.37600484 0.07737886
0.007201592 -0.012518544 0.011689756 0.0044781948 0.08310174 -0.15549389 0.16286366 0.194414
0.07289304 -0.27684483 0.06675857 -0.0075568534 -0.061768748 0.14566024 0.0760771 0.09080675
-0.08778934 0.16677532 -0.053944346 -0.054361954 -0.14612299 0.114727646 0.08496408 0.14343345
-0.09214855 0.020034825 -0.0068467897 -0.020014018 -0.08729579 0.06764728 0.09333536 -0.20020296
-0.45767307 -0.18126984 0.13038678 0.009987532 -0.27926776 -0.15292072 0.012023979 -0.5855605
-0.13826732 0.89150023 -0.19635801 -0.33335423 0.5390654 0.7434641 0.34761098 0.37033862
0.17097054 0.04854249 -0.055351894 -0.18777092 -1.018523 -0.10842365 -0.33571228 -0.6103098
-0.38429964 -0.45445573 -0.42580357 -0.13740532 -0.573881 -0.283231 -0.41843596 -0.6967225
-0.3257935 -0.29124528 -0.32917687 -0.3002476 -0.06300155 0.37537348 -0.033376366 -0.33089057
-0.41627428 -0.08250268 -0.07711047 -0.01286344 -0.71822125 -0.15472588 0.008149601 -0.09164266
-0.39521748 -0.054693077 -0.13867785 0.071326844 0.034768257 -0.06690652 -0.18698089 0.9500654
-0.063604414 0.0045556226 -0.3250388 -0.5902114 -0.5880718 -0.2880109 0.63747424 -0.2356806

lstm.bias_hh_l0 f4 [256]
00000000: bbea cebe 20e4 85be ff1c 7f3e f54e d3be
00000010: 7cce 34bf 5729 25be 3788 debd 94b8 f5be
00000020: af8c 833e 0efb 4c3f 6fd5 7bbe 8601 29bf
00000030: 806d ea3e f394 6d3f 5eb6 1cbe cc93 583e
00000040: eb02 083e 2fa9 9abe 1e5e 70be dd65 d6be
00000050: 01a9 2cbf 5cda c13d 9230 afbe 2796 64bf
00000060: 76cb d2be ff7a f7be 6c2c 21bf 34bf 81be
00000070: 7647 01bf bac8 22be 5eb9 9bbe 14cd 0abf
00000080: b050 06bf 1eda 25be 0743 b4be ef83 a4be
00000090: 43d4 70be f0cd 7a3d 1d54 17be 8c75 21be
000000a0: abd8 0cbe 9721 7b3d 1adb e6bd eef6 ffbd
000000b0: 19e7 7cbf a9a5 17bf 0139 1abe 0ff2 73be
000000c0: 3778 e1be b5e1 60be 5560 aabe 32f1 8ebd
000000d0: 15fa 4fbe 991f 46be 4b90 363c 9338 5e3f
000000e0: 0538 68bd abe3 dfbd dc22 f9be b45c 1fbf
000000f0: c3d0 15bf b24c b5be d3af 333f 13bb 97bc
00000100: b8de 3fbe ea7b cebe 0b05 44bf a673 2ebf
00000110: 13d7 55be 573c 47be d4c4 883e 3707 2abf
00000120: 3ada 9ebe 061d 4cbf 413a 99bd 3b5f ab3d
00000130: 23d5 5ebf 7d84 c6be f597 3ebf 7e2f 34bf
00000140: 67d5 68be 4561 4b3d 1c3e e2bc 8e6a 95be
00000150: 8c25 dcbd e96c 9bbe d76b a63e c271 333c
00000160: cc73 d3be cc1b f3bd c6aa 80bd da4b 16be
00000170: 4b15 d4be f045 e33d 8524 b5be 2857 193e
00000180: 1351 b8be 2ab0 963e 6bb8 48bd b7df 58be
00000190: d27f 783d e80d eabe 553f 05be 9e1b a5be
000001a0: c4db 65be 085d 58be 1b8d c13d 0228 d43e
000001b0: 55f0 bd3e b699 bebd 7a68 3cbe c112 313d
000001c0: 0838 babe 9429 edbd fbfd 4bbd d2ca 8bbe
000001d0: e57b 1fbf 84ba 813e ffe2 8a3d 4532 a2be
000001e0: 7120 a3be a078 52bf 9f15 96be d113 98be
000001f0: 49b9 bfbe 8a5a 963e 68f0 5cbf bcae 13be
00000200: 0fac 8b3d 30c3 003e fd75 c63d eacb bd3d
00000210: 6f85 93bd 7686 2b3e 596a e93b 341f 823d
00000220: 2ac8 463d 71e8 97be 9f4d 1fbe 40e0 163d
00000230: 02b1 2fbe 7706 723d 13e7 39be 2166 02be
00000240: 7d3d 173e c076 6d3d 89e2 883d d6fe 443d
00000250: 03e1 b03d 1822 8bbd 71f8 f33d 41f7 9e3d
00000260: a2f1 d03d bcb5 983d 7dbd 0d3d 3f3d fa3d
00000270: 7494 863d 64ed 15be c73c 9ebe a5c8 89bd
00000280: 3a79 89bd ae61 68bc 773c f5bb 34b4 523d
00000290: 6863 5e3d f495 a4be 8b48 d3bb 6fe3 733c
000002a0: 08e8 e1bd 8e39 26be a285 7dbd af0b 9cbd
000002b0: 34ff 95bc e6a4 6b3d 9684 1d3e 3c75 053e
000002c0: 3222 13be d38a 053d 3744 333d fa7a 8dbd
000002d0: 9629 a8bd 4215 cb3d e484 813e c213 bc3e
000002e0: 8ca7 0dbe f2aa a3bd 83d8 1fbd 38e4 1a3e
000002f0: 4a56 cfbc f056 cebd fa16 59bd 9530 81be
00000300: 9c15 f8be 5b9b 65be 966b 473d f3c3 5dbd
00000310: 25f4 dabe 38bd 4bbe 6912 a4bd d3cf 12bf
00000320: 3123 8f3c 860b 473f 6655 a8bc 8bb7 48be
00000330: 4577 123f 2633 533f dfb2 c23e 1a81 a83e
00000340: 1339 e33d 9061 06be 043d ab3d eda1 e1bd
00000350: 0b54 85bf 3c2a 9d3d da77 85be d9d6 3dbf
00000360: 867b 8dbe 8ec3 bebe 0503 9bbe 6f94 bcbc
00000370: 735a cbbe 57e0 bebe 7bc4 cebe 523b 2ebf
00000380: dc35 a4be 93ad 32be a3a2 abbe 5728 5dbe
00000390: af78 87bd 6611 af3e 855e 19be 8372 a8be
000003a0: 8984 9ebe 0106 0cbe 3c6a 7bbd 6a47 b73d
000003b0: 0bee 4abf dcc0 88be 4bcb cabc ef7e 14bc
000003c0: 827d 04bf cf59 b93d 4da5 35be 4927 82bd
000003d0: e6dd f5bc b0ad 923d 636b 44be 1c89 943f
000003e0: 9473 3cbd 261a 36bd 42c6 aebe 7334 02bf
000003f0: 00f8 10bf ee3c f4be f3c6 103f 5a83 9abe
-0.4041346 -0.26150608 0.24913405 -0.41271177 -0.7062757 -0.16129051 -0.10865825 -0.47992384
0.2569327 0.8007058 -0.24593137 -0.6601795 0.45786667 0.92805403 -0.15303943 0.2115013
0.13282363 -0.30207202 -0.23473403 -0.4187459 -0.6744538 0.09465477 -0.34216744 -0.89291614
-0.41170853 -0.48336026 -0.6295841 -0.2534119 -0.50499666 -0.15896884 -0.3041486 -0.54219174
-0.5246687 -0.16196486 -0.35207388 -0.32131907 -0.23518471 0.061231554 -0.1477818 -0.15767497
-0.13754527 0.06131133 -0.11272259 -0.1249827 -0.9879013 -0.5923715 -0.15060808 -0.23822807
-0.4403703 -0.219611 -0.3327662 -0.06979598 -0.20310242 -0.19347991 0.011142801 0.86805075
-0.05669405 -0.10932096 -0.48659408 -0.6225083 -0.5852167 -0.35410076 0.7019016 -0.018521821
-0.18737304 -0.40328914 -0.76570195 -0.68145216 -0.20882826 -0.19456612 0.26712668 -0.6641726
-0.3102587 -0.79731786 -0.07481814 0.08367773 -0.8704397 -0.38772956 -0.7445062 -0.7038497
-0.22737657 0.04965331 -0.027617507 -0.29182857 -0.10749349 -0.3035653 0.3250415 0.010952415
-0.41299284 -0.11870536 -0.062825724 -0.14677373 -0.41422495 0.11097324 -0.35379425 0.14974654
-0.35999355 0.29431278 -0.049004 -0.2117909 0.060668774 -0.45713735 -0.1301244 -0.32247633
-0.22447115 -0.21129239 0.09450742 0.41436774 0.3709742 -0.09306662 -0.1839923 0.043230776
-0.36370873 -0.11580196 -0.04980276 -0.27303177 -0.62298423 0.25337613 0.06781577 -0.31678978
-0.31860688 -0.8221531 -0.2931337 -0.2970262 -0.3744605 0.2936595 -0.8630433 -0.14422125
0.06819927 0.12574458 0.09690473 0.09267409 -0.07203185 0.16750512 0.0071232733 0.06353608
0.048530735 -0.29669526 -0.15556954 0.036834955 -0.17157367 0.059088197 -0.18154554 -0.12734272
0.1476955 0.057974577 0.06683833 0.048094593 0.086366676 -0.06793612 0.11912621 0.07762004
0.10202338 0.07456538 0.03460454 0.12218713 0.06571284 -0.14641339 -0.30905744 -0.06727723
-0.06712575 -0.014183445 -0.0074840146 0.051441386 0.05429402 -0.32145655 -0.006447857 0.014885767
-0.110305846 -0.16232893 -0.06189502 -0.07619416 -0.018310167 0.057530306 0.15382609 0.13033003
-0.14368513 0.032603096 0.043766227 -0.069082215 -0.08211057 0.09916164 0.252967 0.36733824
-0.13833445 -0.079915896 -0.03902484 0.15126121 -0.0253097 -0.10075176 -0.053000428 -0.25232378
-0.48453987 -0.22422545 0.048686586 -0.05414195 -0.42764392 -0.198964 -0.08011324 -0.57348365
0.017472835 0.7775196 -0.020548534 -0.19601266 0.5721324 0.8249992 0.38027093 0.32910997
0.110948704 -0.13123155 0.08361247 -0.11017213 -1.0416273 0.07674071 -0.26068002 -0.74155957
-0.27633303 -0.3725857 -0.3027574 -0.023019997 -0.39717445 -0.37280533 -0.40384278 -0.68059266
-0.3207234 -0.17449026 -0.3352252 -0.2159742 -0.066148154 0.3419296 -0.14977463 -0.32899866
-0.3096049 -0.13674165 -0.06138061 0.08949168 -0.79269475 -0.2670964 -0.02475514 -0.009063466
-0.5175401 0.09050333 -0.17738838 -0.06355149 -0.030013036 0.071620345 -0.1918159 1.1604342
-0.04600866 -0.04445853 -0.34135634 -0.5086128 -0.5662842 -0.47702736 0.5655357 -0.30178338

fc.weight f4 [1, 64]
00000000: 36e8 adbc 7c62 093c 6803 14be a956 7bbe
00000010: a325 813e 0821 ef3e 2ec4 05bd f63b 8d3e
00000020: 907a a33e a5e8 51bf b2f2 f1be 105e b0bd
00000030: f32b c53e 7678 883e fb2a 8b3f cd0f 26bf
00000040: c923 8f3e 2aaa 6d3d 01c7 98bc 2782 253e
00000050: cae0 c33e a5d2 d73f c8f0 aa3e abf5 253f
00000060: 4b17 153e 0464 ad3c d3a1 c8bd a0e4 a73e
00000070: ffa0 a53e 1c40 8b3e 35e8 2dc0 c8af 1abe
00000080: a6fe 02bd 6784 ecbe 8a11 a73d bb18 a4bf
00000090: d714 b03e d13f 02bf ee89 283e 566a 543e
000000a0: de8c cc3e 3983 a93d e37d 5b3e 24fd 8cbd
000000b0: 6b10 d23d ad7d e63e 55bb 3abe 111b 1c3f
000000c0: 9e01 c7bf c0cf 8abf 1aca c7be ca45 b13d
000000d0: 4e27 9bbd d357 e13c 29e7 15be 3fbb 393f
000000e0: 0c3d d9bd da02 32bf 0f6d ca3e 7650 b1be
000000f0: c7df d6be 7d0f f6be 7d71 38bf c3c5 12bf
-0.02122889 0.008385297 -0.14454424 -0.24544777 0.25224027 0.46704888 -0.032657795 0.2758481
0.31929445 -0.8199561 -0.47255474 -0.08611691 0.38510093 0.26654404 1.0872492 -0.6486786
0.2795699 0.05802361 -0.01864958 0.1616293 0.38257438 1.6861159 0.33386827 0.64827985
0.14559667 0.021165855 -0.097964905 0.32791615 0.32349393 0.2719735 -2.7172978 -0.15106118
-0.031981133 -0.46194765 0.08157642 -1.2820047 0.343909 -0.50878626 0.16458866 0.20743689
0.39951223 0.08276982 0.2143474 -0.0688422 0.10257038 0.45017758 -0.18235524 0.609788
-1.5547369 -1.084465 -0.3902138 0.08655889 -0.07575856 0.027507698 -0.14638962 0.7255134
-0.10607347 -0.695356 0.3953633 -0.346317 -0.41967604 -0.48058692 -0.7204817 -0.5733301
